model.pt (torch, 231927 bytes, 8 tensors)

fc1.weight f4 [128, 193]
0.03532077 -0.013519919 -0.02038276 0.066327386 -0.12322024 0.10607865 0.01665159 0.027766867
-0.023780424 0.041322585 -0.006314225 -0.017094694 0.12116596 0.09221469 0.008610478 -0.01096577
-0.007301953 -0.068805076 -0.012725858 -0.009045085 0.03371172 0.024580292 0.055007823 0.085786685
0.022966893 0.017968679 -0.06185005 -0.024721209 -0.033859238 -0.011735172 -0.06680269 0.026303422
0.07587969 0.021504646 -0.077661715 -0.066814 0.04763899 -0.0320805 0.0139812855 0.10125367
0.013920871 0.1304015 0.1326393 0.15002258 0.14031903 0.124586634 0.06602207 0.05032228
0.008212848 -0.031088427 0.05557662 0.027906675 -0.051002964 -0.014619162 -0.15716721 -0.09861508
-0.08844083 0.13673818 0.08557456 -0.1157164 -0.0776692 0.012094009 0.11836764 0.072266065
0.04871089 0.035018012 -0.013486228 0.03480397 -0.010165053 0.0076596714 -0.048580654 -0.019744666
0.04341244 0.07235284 0.0038614841 0.027254626 0.060568325 -0.058827862 -0.007916541 -0.047924995
-0.010112093 0.021976491 0.028895704 0.010303356 0.024938764 0.04059606 0.03808923 0.05755964
-0.001215734 0.023793343 0.09019513 0.044334795 -0.05845286 -0.06259028 -0.001341331 0.036579598
-0.010814831 0.0059256973 0.065448396 0.012435336 0.03759747 0.012180312 0.008577985 0.074839786
0.059671618 -0.037237376 0.0071967826 0.0010774757 -0.064282924 -0.038325455 -0.033631172 0.004334026
-0.052536104 0.0032992605 -0.0018257297 -0.026656294 0.028243942 0.032642975 -0.032949287 -0.071682796
-0.013810452 -0.06056183 0.022984158 -0.074839145 -0.068282284 -0.07976615 -0.081293106 -0.023146018
-0.076857746 -0.06262328 0.015782995 -0.007869614 -0.029476024 0.05682236 -0.032546714 -0.08014428
-0.03742166 -0.04388238 -0.04998751 0.0041124094 -0.014394548 0.05405226 -0.052760974 -0.024080468
0.059433494 0.019924447 0.04782653 0.055100817 0.033924457 0.050191924 0.07149568 0.036747027
0.067452386 -0.0014159441 0.06966234 -0.023882203 0.08339104 0.057476625 0.06967614 0.044733364
0.014561906 0.014446299 0.07047456 0.006708927 0.009337021 0.09549755 -0.0029538372 0.0003454538
0.071075745 -0.122325346 -0.05839984 -0.117944025 -0.12579738 -0.049469 -0.005123881 -0.13463515
-0.021513447 -0.005306032 -0.078454256 -0.08569933 -0.03542541 -0.03236384 -0.03602235 -0.09075736
0.01625081 -0.1250698 0.13114971 0.027740952 0.034371722 0.019401148 0.0680459 -0.040923633
-0.02070718 0.12668642 0.10254299 -0.026099106 0.014049074 0.021865916 -0.043704875 -0.0062380806
-0.089123555 -0.073768884 0.033065546 0.09626942 -0.049995653 -0.013786316 -0.04521593 -0.018553713
-0.01688974 -0.10513183 -0.04530856 -0.031475633 0.04239216 0.059977237 -0.024887154 -0.08772597
-0.066171214 -0.0645648 -0.024393389 -0.030411454 -0.054900512 -0.1422051 -0.017314356 -0.08467406
-0.052795015 -0.04866798 -0.006295997 0.013517984 -0.016077679 0.09572678 0.0077556716 0.048022136
-0.0052656876 -0.11782392 -0.060100768 -0.028398806 0.03783552 0.13653156 0.018893784 0.097521305
0.076091036 0.0527598 0.015694186 -0.01029255 -0.08724822 0.0039573004 -0.10173979 -0.0030865748
-0.026549835 0.0010685539 -0.012800108 0.117513545 0.026141196 0.05769131 0.09903491 -0.013350593
00000000: 83ac 103d a682 5dbc bff9 a6bc a7d6 873d
00000010: e55a fcbd c33f d93d ea68 883c 5777 e33c
00000020: 2acf c2bc df41 293d 8fe7 cebb 2c0a 8cbc
00000030: dc25 f83d 0edb bc3d f612 0d3c c6a9 33bc
00000040: 3945 efbb ade9 8cbd 1e80 50bc d631 14bc
00000050: 4d15 0a3d 9c5c c93c e24f 613d eeb0 af3d
00000060: 1125 bc3c 0d33 933c 7a56 7dbd 2284 cabc
00000070: fcaf 0abd e144 40bc d9cf 88bd 467a d73c
00000080: d066 9b3d 832a b03c 1b0d 9fbd c7d5 88bd
00000090: 1a21 433d d866 03bd c311 653c 165e cf3d
000000a0: 5d14 643c f987 053e 99d2 073e 859f 193e
000000b0: cbaf 0f3e 4727 ff3d 9436 873d bc1e 4e3d
000000c0: 2e8f 063c 28ad febc 4fa4 633d 8a9c e43c
000000d0: 7ce8 50bd 3685 6fbc 71f0 20be b4f6 c9bd
000000e0: 7720 b5bd 1805 0c3e b741 af3d b8fc ecbd
000000f0: 0811 9fbd f325 463c bc6a f23d 3b00 943d
00000100: 1285 473d 0c6f 0f3d 57f5 5cbc 9c8e 0e3d
00000110: 538b 26bc fbfd fa3b 82fc 46bd 91bf a1bc
00000120: 3ed1 313d ba2d 943d f410 7d3b 1845 df3c
00000130: 7e16 783d 7cf5 70bd 61b4 01bc 004d 44bd
00000140: 31ad 25bc 0b08 b43c afb6 ec3c 68cf 283c
00000150: 614c cc3c 0e48 263d 7403 1c3d a8c3 6b3d
00000160: 4459 9fba 42ea c23c 39b8 b83d 6798 353d
00000170: 446c 6fbd 552f 80bd 9acf afba 7dd4 153d
00000180: b030 31bc 5a2c c23b cf09 863d 94bd 4b3c
00000190: ceff 193d ee8f 473c ad8a 0c3c 9a45 993d
000001a0: 3a6a 743d 3886 18bd fdd2 eb3b 163a 8d3a
000001b0: c4a6 83bd 27fb 1cbd d7c0 09bd 7204 8e3b
000001c0: 1930 57bd 6838 583b 534d efba 4d5e dabc
000001d0: d75f e73c a4b4 053d d5f5 06bd 6ece 92bd
000001e0: 3c45 62bc ae0f 78bd 4649 bc3c 4445 99bd
000001f0: 95d7 8bbd 6f5c a3bd 007d a6bd b89c bdbc
00000200: 9867 9dbd a240 80bd 574b 813c 8eef 00bc
00000210: b477 f1bc 90be 683d b44f 05bd af22 a4bd
00000220: 7447 19bd 03be 33bd b4bf 4cbd 64c1 863b
00000230: 1cd7 6bbc e765 5d3d e41b 58bd 6744 c5bc
00000240: 8970 733d 9838 a33c c0e5 433d 65b1 613d
00000250: 5ff4 0a3d 0c96 4d3d 546c 923d 0d84 163d
00000260: 7a24 8a3d 3397 b9ba 21ab 8e3d 9ca4 c3bc
00000270: ecc8 aa3d 9c6c 6b3d 5db2 8e3d 553a 373d
00000280: 1095 6e3c 2bb0 6c3c f754 903d 8fd6 db3b
00000290: 4efa 183c 3894 c33d 2a95 41bb 061e b539
000002a0: 2990 913d b685 fabd ac34 6fbd a38c f1bd
000002b0: 07d1 00be 02a0 4abd 3be6 a7bb ccdd 09be
000002c0: f83c b0bc 39de adbb a0ac a0bd 2183 afbd
000002d0: 3c1a 11bd f28f 04bd 2c8c 13bd ffde b9bd
000002e0: 6b20 853c 4c12 00be 1c4c 063e fe40 e33c
000002f0: 5dc9 0c3d 28ef 9e3c a65b 8b3d 8a9f 27bd
00000300: 1ba2 a9bc 16ba 013e 0f02 d23d cbcd d5bc
00000310: 162e 663c 2620 b33c e203 33bd d068 ccbb
00000320: 6986 b6bd 2414 97bd bd6f 073d e728 c53d
00000330: 3ec8 4cbd 00e0 61bc 5734 39bd f5fd 97bc
00000340: 5a5c 8abc 5b4f d7bd 7895 39bd 98ec 00bd
00000350: 67a3 2d3d b1aa 753d 25e0 cbbc aca9 b3bd
00000360: c684 87bd 8d3a 84bd a5d4 c7bc 7121 f9bc
00000370: 5cdf 60bd 379e 11be d6d6 8dbc 9869 adbd
00000380: 963f 58bd 1358 47bd a74e cebb 897a 5d3c
00000390: 56b5 83bc 670c c43d 4a23 fe3b dcb2 443d
000003a0: ca8b acbb ab4d f1bd 392c 76bd 9da4 e8bc
000003b0: 6bf9 1a3d eece 0b3e 23c7 9a3c 40b9 c73d
000003c0: 9ed5 9b3d a91a 583d 1891 803c 15a2 28bc
000003d0: 32af b2bd 3eac 813b f35c d0bd 2248 4abb
000003e0: 0a7f d9bc b80e 8c3a 8bb7 51bc f1aa f03d
000003f0: 1026 d63c b94d 6c3d d1d2 ca3d 72bc 5abc

fc1.bias f4 [128]
0.043832377 0.05899399 0.05655845 -0.005660107 -0.0057206904 -0.0021446792 0.08584251 0.0921343
0.073508956 0.010200181 -0.0073033185 0.004895128 0.065875575 0.0025115917 0.13800158 -0.04588589
-0.006135778 -0.0027089326 0.024597477 -0.0012046172 0.09068605 -0.016698252 0.08258211 0.04533654
0.07382217 -0.004786775 0.13597244 0.0014679887 0.032453697 0.11252435 0.11562708 -0.0107216565
0.091928095 -0.007879767 0.06794318 -0.012478537 0.020704828 0.09006438 0.07999888 0.0068051466
0.076416045 0.035949145 0.03930973 0.02848607 0.049720686 0.0016206172 0.13400517 0.014312013
-0.020992208 -0.013471388 0.0023360502 0.1265668 -0.008506623 0.111813724 -0.00070832414 0.011852937
0.13280143 0.09202274 0.047663655 0.086730585 0.045808233 0.06748747 0.05641412 0.08650252
0.06901299 0.09591134 0.08013167 -0.024428625 0.036825746 -0.019038493 0.12919195 0.07993641
0.02111663 0.046976604 0.05519362 0.116763294 0.09964352 0.08034843 0.014884549 0.00020719082
0.11358907 0.07220688 0.09215736 0.05780292 0.082576 0.114811495 0.00803736 0.05938793
0.07174213 0.09061464 0.10924198 -0.010448276 -0.009587586 0.07605068 0.10243445 -0.016854826
0.06423284 0.011089181 0.066917606 0.018536316 0.07646341 0.018205443 0.018105464 0.024465088
-0.027853822 0.13820997 0.05788109 -0.0034909016 -0.00070323877 0.035182912 0.055230305 0.047441367
0.01420706 0.087805435 0.10785439 0.06436181 0.07902536 -0.044270623 0.07188321 0.038436323
0.025832523 0.11908321 0.020277366 0.101731025 0.11491483 -0.009321901 0.116772026 0.024884213
00000000: 9489 333d afa3 713d d5a9 673d 6b78 b9bb
00000010: a174 bbbb bf8d 0cbb 33ce af3d e8b0 bc3d
00000020: dd8b 963d a91e 273c ad50 efbb 4f67 a03b
00000030: c6e9 863d 8499 243b 4950 0d3e d8f2 3bbd
00000040: a30e c9bb 5988 31bb a680 c93c 3fe4 9dba
00000050: 9cb9 b93d c6ca 88bc cf20 a93d cfb2 393d
00000060: 1430 973d 61da 9cbb 5c3c 0b3e 8769 c03a
00000070: 2bee 043d 2b73 e63d e4cd ec3d e3a9 2fbc
00000080: cc44 bc3d 231a 01bc cb25 8b3d c772 4cbc
00000090: 2c9d a93c ac73 b83d 74d6 a33d b5fd de3b
000000a0: 0480 9c3d 693f 133d 3d03 213d 9e5b e93c
000000b0: eba7 4b3d e46a d43a a738 093e ef7c 6a3c
000000c0: daf7 abbc 19b7 5cbc 6b18 193b ba9a 013e
000000d0: 5d5f 0bbc 98fe e43d d4ae 39ba d232 423c
000000e0: 19fd 073e 6b76 bc3d f73a 433d ce9f b13d
000000f0: 6aa1 3b3d df36 8a3d 7e12 673d 3c28 b13d
00000100: af56 8d3d 2a6d c43d 131c a43d 8a1e c8bc
00000110: 98d6 163d 9df6 9bbc e54a 043e b3b5 a33d
00000120: c8fc ac3c 8a6a 403d b512 623d 9821 ef3d
00000130: e711 cc3d b88d a43d 53de 733c 5d41 5939
00000140: 63a1 e83d 33e1 933d ffbc bc3d c1c2 6c3d
00000150: 9b1d a93d 4a22 eb3d 22af 033c c240 733d
00000160: 8aed 923d 2b94 b93d 42ba df3d 3f2f 2bbc
00000170: 4015 1dbc 75c0 9b3d 27c9 d13d 2213 8abc
00000180: 828c 833d 65af 353c 190c 893d 79d9 973c
00000190: d998 9c3d 9523 953c e951 943c 026b c83c
000001a0: b32d e4bc ea86 0d3e b914 6d3d 9cc7 64bb
000001b0: 8e59 38ba f51b 103d 2c39 623d e151 423d
000001c0: bbc4 683c 56d3 b33d c3e2 dc3d 20d0 833d
000001d0: 0cd8 a13d 1d55 35bd 8137 933d 686f 1d3d
000001e0: ba9e d33c e6e1 f33d b81c a63c 5b58 d03d
000001f0: 7758 eb3d e3ba 18bc 2c26 ef3d fad9 cb3c

fc2.weight f4 [128, 128]
0.07945727 -0.07310457 -0.09808158 -0.00768937 -0.13559869 0.0153623605 -0.063687325 0.0026926524
-0.016747087 0.03857087 0.075917915 0.06927587 -0.099683635 -0.024231123 0.012961512 -0.016772183
-0.09558068 -0.0033713193 0.050888892 -0.0043103066 0.11667362 0.051439676 -0.017084964 0.0907443
-0.13673371 -0.035922877 0.1118143 0.10716335 0.008905068 0.073558286 0.094677165 -0.101049416
0.1395363 -0.023407178 0.091953 -0.089426965 0.09067348 -0.060771167 0.069171466 0.016877152
-0.0154072335 -0.020865235 0.08784053 0.058767762 0.06411251 0.07605838 -0.0044624824 0.0007425975
0.016602674 -0.12179917 0.10508846 0.065858856 0.12151273 0.013297469 0.094215706 0.041646853
0.1293899 0.018430552 0.0066378554 0.045165464 0.058471832 -0.1269366 0.109050706 0.14176607
0.043780122 -0.072141364 -0.07159872 -0.029527178 0.06479182 0.086963356 0.034955144 -0.108220935
0.0015160377 0.05587614 0.007350349 0.036612194 0.12379902 0.06645024 0.055420864 0.13916169
0.10821927 0.030792266 0.023020703 0.065198585 0.09655705 0.100246705 -0.024174124 -0.0024398565
0.08924106 -0.02634376 -0.08278358 -0.037711564 0.09002414 0.029236617 0.08840836 0.10063832
0.038760696 -0.009387806 0.10946892 -0.074535534 0.090367496 -0.014767762 0.07595693 0.08667002
0.07723293 0.10776761 -0.04731969 0.012052851 -0.10822646 0.061172824 0.14105868 0.025789317
0.044044416 -0.095206186 -0.03746517 0.035829723 0.10238612 0.09728976 -0.03863369 -0.03930512
0.12402935 0.07022479 -0.009143403 -0.009183248 0.08013481 -0.0747002 -0.07931005 -0.036776107
-0.13577376 -0.132512 0.0484547 0.1007379 -0.120592944 -0.10270397 0.010062101 0.09504675
-0.059189234 -0.103589304 0.06751341 0.0698301 -0.019612664 -0.06604421 0.03083779 -0.12927848
-0.11704327 0.025221078 -0.0041169706 -0.0050918204 -0.005337474 -0.075713634 0.015364298 0.07137054
-0.085427046 -0.009840037 -0.045862135 0.0038545148 0.098619804 0.06811568 0.092768535 -0.0324658
0.021507688 -0.04692693 -0.05250361 -0.012084101 0.07821849 0.018750416 0.028070403 -0.07199632
-0.028070075 0.023956912 -0.055378802 -0.08336472 0.039212294 0.028308874 -0.008575444 -0.124593146
-0.05470598 0.106595784 0.003979904 -0.0838479 0.11457601 -0.12006281 -0.070276886 -0.089303955
-0.11797472 0.11556127 0.059781905 0.03220825 -0.11296014 -0.08220477 -0.04691376 0.0126988245
0.08309916 -0.03221258 -0.079367526 -0.028722934 -0.049667943 -0.10567371 0.07167945 -0.09795703
0.04294688 -0.021010289 0.09032781 -0.08056286 -0.13954721 -0.11006274 -0.045274083 -0.03890334
0.11662802 -0.16436633 0.027227217 0.045754675 0.057073284 0.11701601 0.016005868 0.0005745416
0.025540864 0.0011425999 -0.0061381487 -0.0065828185 0.032037888 0.06983001 -0.0686023 0.067795925
-0.047139447 0.054795537 -0.05778188 -0.012283241 0.049664356 0.113521576 0.0025032782 0.0010665299
-0.055159204 -0.09476841 0.08274268 0.11124393 -0.17075409 0.10070782 -0.14761911 -0.101971224
-0.003898377 0.0010220339 0.009338078 0.07434425 0.11054546 0.08601896 0.08236716 -0.010685072
-0.0008462656 0.08080563 0.06475046 0.0025584372 0.09316189 0.06350868 -0.011680498 0.0792139
00000000: 7eba a23d d9b7 95bd ffde c8bd 1cf7 fbbb
00000010: 62da 0abe 69b2 7b3c 806e 82bd 3677 303b
00000020: 3031 89bc 7dfc 1d3d da7a 9b3d 82e0 8d3d
00000030: ef26 ccbd 5980 c6bc 865c 543c d165 89bc
00000040: cebf c3bd 5af1 5cbb df70 503d 793d 8dbb
00000050: 94f2 ee3d 69b2 523d c4f5 8bbc 26d8 b93d
00000060: ec03 0cbe de23 13bd e5fe e43d 7578 db3d
00000070: 90e6 113c baa5 963d 1ae6 c13d fff2 cebd
00000080: 9be2 0e3e 69c0 bfbc db51 bc3d 7c25 b7bd
00000090: 04b3 b93d 30eb 78bd c5a9 8d3d f441 8a3c
000000a0: 9f6e 7cbc 92ed aabc bce5 b33d 77b6 703d
000000b0: 6b4d 833d 7fc4 9b3d 043a 92bb e0aa 423a
000000c0: 5502 883c d871 f9bd 9e38 d73d 02e1 863d
000000d0: abdb f83d a1dd 593c 2af4 c03d e495 2a3d
000000e0: c97e 043e abfb 963c 5e82 d93b 6cff 383d
000000f0: 2980 6f3d abfb 01be fa55 df3d 202b 113e
00000100: c952 333d dabe 93bd 5aa2 92bd fbe2 f1bc
00000110: 93b1 843d d819 b23d 202d 0f3d f0a2 ddbd
00000120: c9b5 c63a 61de 643d 32db f03b abf6 153d
00000130: 578a fd3d 1017 883d fd00 633d 6780 0e3e
00000140: 11a2 dd3d 1040 fc3c ea95 bc3c d686 853d
00000150: b4bf c53d 254e cd3d d008 c6bc 00e6 1fbb
00000160: 04c4 b63d dece d7bc 708a a9bd 7177 1abd
00000170: 945e b83d a181 ef3c 710f b53d 771b ce3d
00000180: 89c3 1e3d 50cf 19bc 3e31 e03d 16a6 98bd
00000190: 9812 b93d 7cf4 71bc 4f8f 9b3d 0d80 b13d
000001a0: 4c2c 9e3d 44b5 dc3d 4bd2 41bd 5279 453c
000001b0: d6a5 ddbd 5b90 7a3d b071 103e 1e44 d33c
000001c0: eb67 343d 76fb c2bd 1475 19bd 30c2 123d
000001d0: d0af d13d db3f c73d 5c3e 1ebd 68fe 20bd
000001e0: 1a03 fe3d 04d2 8f3d 36ce 15bc 5575 16bc
000001f0: b81d a43d 6bfc 98bd 4f6d a2bd 8ba2 16bd
00000200: 4708 0bbe 3ab1 07be 6f78 463d ac4f ce3d
00000210: 6ff9 f6bd 7656 d2bd 83db 243c dfa7 c23d
00000220: 6970 72bd a126 d4bd 7844 8a3d 1503 8f3d
00000230: bdaa a0bc 3042 87bd 889f fc3c 9461 04be
00000240: 62b4 efbd 6f9c ce3c a7e7 86bb 49d9 a6bb
00000250: fae5 aebb c00f 9bbd 89ba 7b3c b82a 923d
00000260: 60f4 aebd 1b38 21bc efd9 3bbd 079c 7c3b
00000270: 2ef9 c93d 3c80 8b3d 6efd bd3d dcfa 04bd
00000280: e430 b03c 7436 40bd 060e 57bd 65fc 45bc
00000290: 0431 a03d 799a 993c e7f3 e53c ce72 93bd
000002a0: 37f3 e5bc 4941 c43c e2d4 62bd 1fbb aabd
000002b0: 129d 203d 03e8 e73c 0580 0cbc b12a ffbd
000002c0: 6113 60bd e44e da3d db69 823b 73b8 abbd
000002d0: d4a6 ea3d 7ee3 f5bd 54ed 8fbd fee4 b6bd
000002e0: bb9c f1bd 63ab ec3d dfdd 743d ccec 033d
000002f0: a557 e7bd f95a a8bd a528 40bd bb0e 503c
00000300: e42f aa3d 57f1 03bd 718b a2bd 5c4c ebbc
00000310: 9d70 4bbd 756b d8bd adcc 923d b29d c8bd
00000320: 11e9 2f3d c51d acbc c9fd b83d 24fe a4bd
00000330: 77e5 0ebe 9368 e1bd 5171 39bd 1c59 1fbd
00000340: acda ee3d a64f 28be 9d0b df3c 4169 3b3d
00000350: adc5 693d 17a6 ef3d bd1e 833c d69c 163a
00000360: 133b d13c 4ac3 953a 8622 c9bb afb4 d7bb
00000370: 293a 033d 0903 8f3d 5d7f 8cbd 97d8 8a3d
00000380: 4b15 41bd 4971 603d b1ac 6cbd a63f 49bc
00000390: da6c 4b3d 007e e83d 0a0e 243b ceca 8b3a
000003a0: 9eee 61bd f115 c2bd ff74 a93d dcd3 e33d
000003b0: 29da 2ebe e73f ce3d 7729 17be 4ad6 d0bd
000003c0: ea7b 7fbb c4f5 853a bdfe 183c cc41 983d
000003d0: a865 e23d b52a b03d 1db0 a83d 7110 2fbc
000003e0: ecd7 5dba 6c7d a53d e49b 843d 74ab 273b
000003f0: a9cb be3d d710 823d 8f5f 3fbc e63a a23d

fc2.bias f4 [128]
0.10660575 0.018827518 -0.03606822 0.12960023 0.007182602 0.11361495 -0.046490263 0.101034015
0.038742203 0.026454795 0.01603615 0.049886517 -0.001585767 0.111044064 -0.010737183 -0.006200034
-0.008242012 0.06882426 0.015202824 0.12956244 0.09383314 0.09723435 0.07556451 0.09877028
0.06750962 0.10177533 0.009698782 0.050923523 -0.028757265 0.020448938 0.022970714 0.036758095
0.0354392 0.06751527 0.050815098 0.018374294 0.00080982543 0.032064367 0.1218579 -0.027190577
-0.043995958 0.0053956416 0.10415111 -0.027388817 -0.048664987 0.06787255 -0.035550795 0.037714414
0.11080742 0.066411905 0.06341026 0.011517113 0.0240485 0.10358139 0.04537723 0.031651024
0.07387106 0.10716007 0.07861412 0.055790335 0.031891726 -0.024975706 0.08374833 0.003947144
0.04567189 -0.015684443 0.0007683824 0.023154214 0.029297428 0.057613097 0.0441839 -0.04633999
0.0076633506 -0.033948638 -0.0044034934 0.05128393 -0.019383242 -0.01582693 0.09352786 0.063303314
-0.028606743 0.0036847899 0.06738233 0.03499864 0.038456224 0.019918183 0.13121343 0.034882233
-0.018347248 0.059985038 0.05694838 0.12425493 0.006529375 0.033357285 0.050444435 0.005572395
0.002536622 0.08652757 0.08088495 0.08466137 -0.045540962 -0.042150423 -0.038438845 0.109870955
0.09892073 -0.018365508 0.06961977 0.12422869 0.08037197 -0.027138434 0.021996427 0.0661107
0.097237416 0.035397854 0.09703267 0.050104477 0.0942363 0.075269006 0.124394335 0.124745525
0.03255313 0.020692594 0.059807632 -0.01560693 0.06630951 0.09998807 0.04475297 -0.03174661
00000000: 1e54 da3d 2b3c 9a3c 45bc 13bd ecb5 043e
00000010: 085c eb3b f4ae e83d 936c 3ebd ecea ce3d
00000020: 25b0 1e3d bab7 d83c 3e5e 833c ce55 4c3d
00000030: 83d9 cfba 126b e33d 02eb 2fbc a829 cbbb
00000040: 8109 07bc bcf3 8c3d 4415 793c 04ac 043e
00000050: 972b c03d ce22 c73d 91c1 9a3d 1348 ca3d
00000060: 7c42 8a3d 966f d03d a4e7 1e3c 2f95 503d
00000070: 5b94 ebbc 8884 a73c 142d bc3c a88f 163d
00000080: b228 113d 7245 8a3d 7e23 503d b085 963c
00000090: 774a 543a ed55 033d a290 f93d c6be debc
000000a0: 1b35 34bd eccd b03b 2d4d d53d 835e e0bc
000000b0: f054 47bd c300 8b3d b69d 11bd 6e7a 1a3d
000000c0: 00ef e23d f702 883d 3ddd 813d 46b2 3c3c
000000d0: 5c01 c53c 7b22 d43d 79dd 393d 81a4 013d
000000e0: b649 973d bd76 db3d 7100 a13d 6884 643d
000000f0: e6a0 023d da99 ccbc 3f84 ab3d 0b57 813b
00000100: 7312 3b3d a97c 80bc 456d 493a e8ad bd3c
00000110: 2901 f03c b6fb 6b3d 2dfa 343d 00cf 3dbd
00000120: d81c fb3b ba0d 0bbd 2e4b 90bb 190f 523d
00000130: 9bc9 9ebc 7aa7 81bc 898b bf3d 2ba5 813d
00000140: b058 eabc 847c 713b bfff 893d bc5a 0f3d
00000150: 4684 1d3d 752b a33c d05c 063e ace0 0e3d
00000160: f84c 96bc dfb2 753d b442 693d 5e79 fe3d
00000170: 5ef4 d53b a6a1 083d d39e 4e3d a398 b63b
00000180: 753d 263b 5e35 b13d 02a7 a53d f162 ad3d
00000190: 2989 3abd eca5 2cbd 0d72 1dbd 0604 e13d
000001a0: f496 ca3d 4373 96bc cf94 8e3d 9d6b fe3d
000001b0: 0f9a a43d 6c51 debc da31 b43c 0c65 873d
000001c0: 6924 c73d 57fd 103d 11b9 c63d 5a3a 4d3d
000001d0: f6fe c03d a326 9a3d 75c2 fe3d 957a ff3d
000001e0: 6e56 053d 8483 a93c d9f8 743d 35b4 7fbc
000001f0: 48cd 873d 8cc6 cc3d e44e 373d bc08 02bd

fc3.weight f4 [100, 128]
0.061407845 0.0015775964 -0.041004542 -0.047637172 0.023734294 -0.03711818 0.07776645 0.04048497
0.064836785 -0.08238644 -0.0046699527 0.1642369 0.10105838 0.083145544 0.08631641 0.10801565
0.014646367 0.023672558 0.048099417 0.07841797 -0.10925324 -0.13196601 0.060929745 -0.1300535
-0.12456475 -0.005847905 0.100314386 0.023232773 0.09931274 -0.08667081 -0.06436612 0.005058245
0.14027673 -0.09932843 0.052723892 0.0025165584 0.075314514 -0.06861762 0.02795025 0.01907059
0.028116835 0.106860384 0.0557818 0.060904253 0.10126227 -0.012369262 0.017705562 -0.06563614
-0.08705651 0.0395586 0.00920251 0.06110947 -0.09727916 0.0914061 0.07089083 0.12841871
-0.089401536 -0.058640245 0.08235249 -0.07145649 -0.002272582 -0.028332878 0.02005788 -0.014418494
-0.0047904 -0.05601531 -0.09685973 0.010532861 -0.08232026 0.07984795 0.029622573 0.024538115
0.035855368 0.05404174 -0.053841785 0.047776908 -0.035161316 0.14046398 0.0039138626 0.07240307
-0.020653436 0.09241868 0.06380342 0.057480246 0.08398729 0.10060983 -0.038018398 -0.08389935
0.005978854 -0.093155935 0.1350642 0.086773925 0.047676206 0.12619154 -0.0071925824 -0.016477853
0.08148067 -0.0021547403 -0.02834362 0.03305227 -0.060776424 -0.025307491 0.07425737 -0.017191578
-0.014379807 -0.08319748 -0.11133619 0.13614815 -0.04631794 -0.056030344 -0.033395976 -0.022769013
0.032610547 0.06765786 0.036731686 0.04864974 -0.042735975 0.0659902 -0.036015127 0.0012493988
0.114773534 -0.0010163818 0.05112703 -0.11728621 -0.099686354 0.08483366 0.019925786 0.0793137
-0.041123323 0.11484326 -0.003892875 0.11208492 -0.045038816 0.006523884 0.0035111303 0.06648044
-0.056318715 -0.06630315 0.004221802 0.14470136 0.0101037305 0.08778373 0.055587612 0.12136475
-0.07750048 -0.026295774 0.0061230385 0.084848136 0.06725564 -0.002439684 -0.063177526 0.07042736
-0.036867477 0.07825691 0.024241159 0.08650458 0.075646795 0.083733335 0.091940284 -0.044095997
-0.049183194 -0.021969764 -0.045364216 0.024314534 0.042311236 0.027676646 -0.06366262 0.017221875
0.08416068 -0.01107963 0.056386314 -0.0259058 0.041630723 0.041917108 -0.046137683 -0.0011886786
0.120143875 -0.043818384 0.1275687 0.059980962 -0.059957877 -0.020949287 -0.08345714 0.059238866
0.06631251 -0.011302508 0.0044201678 -0.016626364 0.032085326 -0.05571144 -0.026103672 -0.09337944
-0.035776004 0.103449844 0.075658076 -0.066449866 0.051315837 -0.061588347 0.048836917 -0.11105188
0.08486057 -0.008163498 -0.0090438835 0.04748354 0.060557738 0.15339199 0.017348992 0.018344078
0.097706 0.12714893 0.04299097 0.14479007 0.07640398 0.08964516 0.012067951 0.13546027
0.11108692 -0.113483205 0.12384761 0.09827589 0.007929325 -0.056682825 0.0369237 -0.053961035
0.071119405 -0.023489118 0.106326535 0.027982892 -0.020865846 0.0018490768 -0.07029672 -0.003519959
0.11916525 0.029895168 -0.07446088 0.07454473 0.12883559 0.11577303 -0.056022257 -0.12335961
0.10576875 -0.007917264 0.12621264 -0.018362904 0.010106962 0.008753938 0.015471508 -0.10283114
-0.03931432 0.036125463 0.14555931 -0.09838207 -0.06484117 0.06583536 0.026886139 0.10656693
00000000: cb86 7b3d 5ac7 ce3a 61f4 27bd 321f 43bd
00000010: 6c6e c23c 3c09 18bd 0444 9f3d 91d3 253d
00000020: 26c9 843d 39ba a8bd 6706 99bb b82d 283e
00000030: b2f7 ce3d 3648 aa3d a8c6 b03d 4f37 dd3d
00000040: 51f7 6f3c f4ec c13c e503 453d 9a99 a03d
00000050: 2ac0 dfbd 1922 07be 7891 793d bf2c 05be
00000060: ce1b ffbd c89f bfbb a171 cd3d a852 be3c
00000070: 7a64 cb3d 7780 b1bd 62d2 83bd a2bf a53b
00000080: b4a4 0f3e b46c cbbd 02f5 573d d8ec 243b
00000090: 7f3e 9a3d 6587 8cbd ecf7 e43c ed39 9c3c
000000a0: 4755 e63c 9ed9 da3d 757b 643d bd76 793d
000000b0: 9862 cf3d 72a8 4abc 410b 913c 3e6c 86bd
000000c0: af4a b2bd 3308 223d 20c6 163c ec4d 7a3d
000000d0: 4c3a c7bd 1f33 bb3d 362f 913d 3280 033e
000000e0: 2718 b7bd c130 70bd 6ca8 a83d c857 92bd
000000f0: 99ef 14bb 5a1a e8bc 6c50 a43c 8c3b 6cbc
00000100: caf8 9cbb 4f70 65bd 655e c6bd 0592 2c3c
00000110: 8697 a8bd 5287 a33d 0aab f23c 2804 c93c
00000120: 14dd 123d df5a 5d3d 3489 5cbd b8b1 433d
00000130: 5005 10bd cad5 0f3e dc3f 803b 1048 943d
00000140: 6531 a9bc 0146 bd3d 5eab 823d 6870 6b3d
00000150: 8701 ac3d 870c ce3d 2eb9 1bbd 6cd3 abbd
00000160: 43ea c33b 8ac8 bebd 454e 0a3e 87b6 b13d
00000170: 2048 433d 5b38 013e c1af ebbb 90fc 86bc
00000180: 56df a63d 8b36 0dbb e130 e8bc d161 073d
00000190: b3f0 78bd a851 cfbc 3f14 983d 5ad5 8cbc
000001a0: 4899 6bbc 7163 aabd 3a04 e4bd 6c6a 0b3e
000001b0: e1b7 3dbd 1380 65bd 38ca 08bd 1586 babc
000001c0: a392 053d 3490 8a3d f773 163d f344 473d
000001d0: eb0b 2fbd df25 873d 9984 13bd dec2 a33a
000001e0: 630e eb3d 1d38 85ba 946a 513d c133 f0bd
000001f0: 5c28 ccbd 45bd ad3d 673b a33c 396f a23d
00000200: ee70 28bd f132 eb3d 9b1f 7fbb c78c e53d
00000210: 9f7a 38bd 4ec6 d53b fe1a 663b e626 883d
00000220: 74ae 66bd f2c9 87bd 0b57 8a3b 982c 143e
00000230: 1e8a 253c f5c7 b33d d6af 633d 158e f83d
00000240: 92b8 9ebd 3c6a d7bc c5a3 c83b dcc4 ad3d
00000250: 53bd 893d 1be3 1fbb 3863 81bd 383c 903d
00000260: 5a02 17bd 2945 a03d 6595 c63c 5029 b13d
00000270: b5ec 9a3d 627c ab3d 304b bc3d 019e 34bd
00000280: 5174 49bd eff9 b3bc d4cf 39bd 462f c73c
00000290: 8c4e 2d3d 22ba e23c 8c61 82bd e414 8d3c
000002a0: 6f5c ac3d 5687 35bc 56f5 663d 6638 d4bc
000002b0: fa84 2a3d 46b1 2b3d defa 3cbd 6fcd 9bba
000002c0: fe0d f63d e87a 33bd 5fa1 023e 99ae 753d
000002d0: 6496 75bd d79d abbc 94eb aabd 74a4 723d
000002e0: dace 873d 282e 39bc 0ed7 903b 0334 88bc
000002f0: e76b 033d ae31 64bd 5ed7 d5bc b83d bfbd
00000300: dc89 12bd 83dd d33d 9ff2 9a3d de16 88bd
00000310: 8e30 523d 1044 7cbd 3809 483d 2b6f e3bd
00000320: 61cb ad3d 31c0 05bc cc2c 14bc 1a7e 423d
00000330: 640b 783d ca12 1d3e 791f 8e3c 5246 963c
00000340: 151a c83d 5433 023e 4d17 303d d943 143e
00000350: b179 9c3d e297 b73d a8b8 453c 19b6 0a3e
00000360: 8a81 e33d e269 e8bd d1a3 fd3d df44 c93d
00000370: 00ea 013c 402c 68bd 4e3d 173d 3f06 5dbd
00000380: 0da7 913d 406c c0bc bac1 d93d 613c e53c
00000390: daee aabc b95c f23a baf7 8fbd 1daf 66bb
000003a0: e90c f43d b6e6 f43c f27e 98bd e8aa 983d
000003b0: 7aed 033e 691a ed3d 9877 65bd f7a3 fcbd
000003c0: 499d d83d 69b7 01bc e33d 013e cd6d 96bc
000003d0: ac97 253c ad6c 0f3c 357c 7d3c 2299 d2bd
000003e0: 0d08 21bd 4bf8 133d 800d 153e 8a7c c9bd
000003f0: 73cb 84bd b0d4 863d 5240 dc3c c33f da3d

fc3.bias f4 [100]
0.106676675 0.052931454 0.045426805 0.03196371 -0.0026073232 -0.01045402 0.029838065 -0.021246696
0.0032615527 0.04626163 -0.029716017 0.07090201 -0.10449615 0.0037942163 -0.030690687 0.030674877
-0.052703556 -0.09625796 0.066530205 0.09196348 -0.022401176 -0.040850647 -0.037785932 0.011502197
0.08745431 0.095975064 -0.006550315 0.08343383 0.09143614 -0.037494645 0.060136065 0.07312739
-0.101192236 -0.037432548 0.086835265 0.0561278 0.038875524 -0.0613658 0.0041719186 0.054271907
0.07310662 -0.0035499097 -0.020140793 0.034244813 -0.017405458 0.11985982 0.12394838 0.043325372
0.0053049047 0.013062895 0.080450095 -0.059491046 0.11150041 0.033284005 0.040826213 0.07773585
0.04297956 0.08338487 -0.023637548 -0.0014075082 -0.087539345 -0.050134655 0.0115385065 -0.011907918
0.017863238 0.06146269 0.089533456 0.04866577 0.039661296 0.074412 0.10694734 -0.058813963
0.0638086 0.019294541 0.09528889 0.05734664 -0.002282106 -0.047795147 0.072627984 -0.057663795
-0.063653395 0.08846945 0.09189014 0.03308087 0.044656876 0.028032675 -0.076572455 -0.07348184
-0.029320672 -0.026520826 0.106839344 0.07992587 -0.015758684 -0.0844444 -0.058186915 0.10633543
0.05363372 0.05461418 -0.057897355 -0.0071951523
00000000: 4d79 da3d a7ce 583d 7511 3a3d 61ec 023d
00000010: a0df 2abb 5747 2bbc f56e f43c 8d0d aebc
00000020: c6bf 553b d67c 3d3d 016f f3bc 1335 913d
00000030: 1402 d6bd 63a8 783b 096b fbbc e149 fb3c
00000040: afdf 57bd e522 c5bd fd40 883d 5957 bc3d
00000050: ac82 b7bc 0253 27bd 6cc5 1abd b673 3c3c
00000060: 3f1b b33d 938e c43d 06a4 d6bb 5bdf aa3d
00000070: df42 bb3d fc93 19bd 3c51 763d d0c3 953d
00000080: e03d cfbd df52 19bd b0d6 b13d 44e6 653d
00000090: f13b 1f3d b55a 7bbd 97b4 883b 384c 5e3d
000000a0: ecb8 953d 9aa5 68bb 4efe a4bc 4a44 0c3d
000000b0: e495 8ebc 1179 f53d a6d8 fd3d f275 313d
000000c0: c4d4 ad3b c105 563c 05c3 a43d e2ac 73bd
000000d0: 545a e43d cf54 083d 6339 273d f933 9f3d
000000e0: 560b 303d b0c5 aa3d 88a3 c1bc 237c b8ba
000000f0: d447 b3bd ff59 4dbd 010c 3d3c 6e19 43bc
00000100: ed55 923c 4dc0 7b3d 515d b73d c255 473d
00000110: e273 223d 5265 983d 3507 db3d e9e6 70bd
00000120: 15ae 823d 960f 9e3c d226 c33d 4fe4 6a3d
00000130: 638f 15bb d8c4 43bd fbbd 943d df30 6cbd
00000140: b65c 82bd 792f b53d e630 bc3d ce7f 073d
00000150: 21ea 363d c8a4 e53c 05d2 9cbd a67d 96bd
00000160: e831 f0bc 3442 d9bc 96ce da3d 2db0 a33d
00000170: 5b18 81bc 30f1 acbd 6755 6ebd 64c6 d93d
00000180: 08af 5b3d 1eb3 5f3d c725 6dbd 50c5 ebbb

fc4.weight f4 [30, 100]
0.09553749 0.038543385 0.019042017 0.061321504 -0.0067020943 -0.06572781 0.0050005694 0.054056935
-0.038729604 -0.06824 -0.06697061 -0.017806718 -0.01967493 0.07979568 0.044105764 0.04776283
-0.045444027 0.011910137 -0.09271539 0.045059018 0.010524607 0.1164863 0.0092950985 -0.100167125
9.5947216e-05 -0.10437183 -0.06643996 -0.03446788 0.11674289 0.083552755 -0.06559699 -0.08583307
-0.093076415 -0.022632299 0.10661494 0.06324886 -0.022595238 0.03957335 0.11639456 -0.05821152
0.059116174 -0.10587769 0.12466991 0.037751976 0.0008975089 -0.12769908 -0.0106880665 0.06677472
-0.037520565 0.10783808 -0.08005003 -0.004514703 -0.078033924 -0.12787879 0.045434345 -0.11206189
-0.12818214 0.088447265 -0.07831807 -0.03707255 0.010032019 -0.098188944 -0.043353293 0.025787966
0.06684043 -0.0022085127 0.009561855 0.111637756 -0.09924243 0.05840077 -0.09124814 -0.011419478
-0.07619027 0.084617615 -0.10304983 0.09270594 -0.075319916 0.054357756 -0.07378163 0.117298745
0.07904249 0.03694071 0.00372863 -0.12465755 0.09257557 0.031192148 -0.09205359 -0.059764422
0.07996393 -0.06718357 -0.120279945 -0.02262168 0.019415317 0.05398385 0.11346395 -0.07997551
0.025240526 0.05460212 0.073789574 0.123432755 0.07193671 -0.044715755 0.09189516 0.11965904
-0.061147463 -0.10296567 -0.08102263 -0.020505568 -0.11392873 -0.011010998 -0.09428862 -0.12634972
-0.09100828 0.053757515 -0.131426 -0.13112193 -0.048751008 -0.072243504 -0.15150927 0.13899209
0.074016 0.06801752 -0.051222987 0.027446253 -0.103768334 0.13115527 0.015675366 -0.058425494
-0.056608666 -0.118992776 -0.057452634 -0.16063586 -0.094135426 -0.11478117 -0.121383294 0.08031004
0.08830158 -0.0973759 -0.1397499 -0.07070211 0.15642655 -0.034629334 0.028774375 -0.09878423
-0.121572405 -0.07527366 0.14055808 -0.14021362 -0.06092873 -0.103965744 -0.06610012 0.079005934
-0.07710539 -0.011130172 0.019518415 -0.08747828 0.020226698 -0.01698249 -0.13895294 -0.12344289
-0.08128251 0.07904261 0.037774798 0.117332034 0.050090197 0.093295984 -0.079946026 0.02764803
-0.029588496 -0.06553854 -0.12403567 -0.047110226 0.13021325 0.01102965 0.090169944 0.024709973
0.0020035391 -0.06428232 -0.035558444 -0.0989126 -0.08591389 0.050272003 0.04920496 -0.12228024
0.011661315 0.034191728 -0.03212451 0.057488527 -0.06681089 -0.048701927 0.018184392 -0.10931336
-0.055987183 0.07561971 -0.012814994 -3.939684e-05 -0.076915115 0.09422945 -0.0771228 -0.0013673437
0.0011655553 0.036562905 0.011029719 0.1394702 0.150628 0.087057486 0.0027068092 0.000474913
0.09580593 -0.15697576 0.0098664425 -0.11002762 0.0008860044 0.121680446 0.009205871 0.017517826
0.008112294 0.056897007 -0.074037686 0.045010537 -0.09748056 -0.105199054 0.13922854 0.05786211
0.02110715 0.111089244 -0.0621235 0.16564247 -0.07967788 -0.0321606 0.03061947 -0.13434169
-0.04152673 0.002861402 -0.033693317 -0.15998274 -0.11013411 -0.070911385 0.063170165 -0.14644209
-0.019821655 -0.10476133 -0.12908304 0.05708486 -0.04311592 0.040714707 0.018403767 0.08745306
-0.12805548 -0.05668101 -0.07378561 0.036382243 -0.03989362 0.09296264 -0.09046688 -0.09026565
00000000: 29a9 c33d abdf 1d3d 01fe 9b3c 422c 7b3d
00000010: 3e9d dbbb 4d9c 86bd d1db a33b ce6a 5d3d
00000020: efa2 1ebd 6ac1 8bbd e327 89bd 65df 91bc
00000030: 522d a1bc eb6b a33d 3fa8 343d f5a2 433d
00000040: 8423 3abd bc22 433c 91e1 bdbd ce8f 383d
00000050: 676f 2c3c 5f90 ee3d 784a 183c 6c24 cdbd
00000060: 4537 c938 e6c0 d5bd ac11 88bd 312e 0dbd
00000070: e516 ef3d b51d ab3d b757 86bd 40c9 afbd
00000080: d99e bebd 5f67 b9bc ef58 da3d 9e88 813d
00000090: a619 b9bc aa17 223d 4560 ee3d 346f 6ebd
000000a0: cd23 723d 67d6 d8bd f052 ff3d d1a1 1a3d
000000b0: cd46 6b3a 8cc3 02be 001d 2fbc 2fc1 883d
000000c0: 2aaf 19bd 36da dc3d 45f1 a3bd 13f0 93bb
000000d0: 40d0 9fbd a8f2 02be 5d19 3a3d b480 e5bd
000000e0: 2e42 03be d723 b53d 3965 a0bd 63d9 17bd
000000f0: 565d 243c 4917 c9bd 3993 31bd 4941 d33c
00000100: a3e3 883d b2bc 10bb 54a9 1c3c 56a2 e43d
00000110: 9d3f cbbd a535 6f3d 4ee0 babd c318 3bbc
00000120: a509 9cbd 004c ad3d ca0b d3bd 9ddc bd3d
00000130: 5441 9abd 3da6 5e3d d31a 97bd 533a f03d
00000140: 07e1 a13d 244f 173d 085c 743b 754c ffbd
00000150: 4398 bd3d ad86 ff3c 9886 bcbd 8acb 74bd
00000160: 21c4 a33d 8a97 89bd 5555 f6bd 1a51 b9bc
00000170: df0c 9f3c 2b1e 5d3d ca5f e83d 33ca a3bd
00000180: 38c5 ce3c 79a6 5f3d fd1e 973d 50ca fc3d
00000190: 8e53 933d de27 37bd 8833 bc3d cc0f f53d
000001a0: c375 7abd aadf d2bd 31ef a5bd 4bfb a7bc
000001b0: 7753 e9bd 7967 34bc 641a c1bd d261 01be
000001c0: 8d62 babd d730 5c3d 8a94 06be d444 06be
000001d0: 23af 47bd 67f4 93bd 3f25 1bbe f153 0e3e
000001e0: b395 973d c54c 8b3d 32cf 51bd f7d6 e03c
000001f0: 7e84 d4bd 914d 063e a069 803c 924f 6fbd
00000200: 7dde 67bd 7cb2 f3bd 7453 6bbd ba7d 24be
00000210: 13ca c0bd 6412 ebbd ce97 f8bd 9779 a43d
00000220: 75d7 b43d 046d c7bd 991a 0fbe 45cc 90bd
00000230: 482e 203e 7dd7 0dbd 3db8 eb3c 634f cabd
00000240: f4fa f8bd 1429 9abd 75ee 0f3e 2994 0fbe
00000250: 6790 79bd feeb d4bd 805f 87bd ddcd a13d
00000260: 6ee9 9dbd 535b 36bc 15e5 9f3c d027 b3bd
00000270: 76b2 a53c dd1e 8bbc ae49 0ebe a0cf fcbd
00000280: 7277 a6bd 18e1 a13d bfb9 1a3d c74b f03d
00000290: 612b 4d3d f711 bf3d beba a3bd 1f7e e23c
000002a0: 9363 f2bc 1239 86bd 6a06 febd a7f6 40bd
000002b0: 9f56 053e b5b5 343c 05ab b83d 926c ca3c
000002c0: cf4d 033b 73a6 83bd bba5 11bd b092 cabd
000002d0: 9ff3 afbd 04ea 4d3d 248b 493d 106e fabd
000002e0: 1a0f 3f3c a00c 0c3d fd94 03bd 1779 6b3d
000002f0: 26d4 88bd ac7b 47bd 6ff7 943c afdf dfbd
00000300: d152 65bd 82de 9a3d fbf5 51bc 093e 25b8
00000310: ac85 9dbd 5ffb c03d 8ff2 9dbd 7138 b3ba
00000320: 8cc5 983a fcc2 153d ffb5 343c 47d1 0e3e
00000330: 3a3e 1a3e 324b b23d b964 313b befd f839
00000340: e635 c43d 41be 20be dca6 213c 2956 e1bd
00000350: c042 683a 9933 f93d 39d4 163c 8b81 8f3c
00000360: 6de9 043c d60c 693d 12a1 97bd f85c 383d
00000370: e3a3 c7bd 9a72 d7bd ed91 0e3e d200 6d3d
00000380: e7e8 ac3c c282 e33d 3675 7ebd 2e9e 293e
00000390: 282e a3bd d5ba 03bd afd5 fa3c de90 09be
000003a0: ef17 2abd 5c86 3b3b 0102 0abd 84d2 23be
000003b0: fe8d e1bd fd39 91bd 5c5f 813d eaf4 15be
000003c0: 0661 a2bc 1c8d d6bd 582e 04be d0d1 693d
000003d0: 529a 30bd 77c4 263d 7fc3 963c 971a b33d
000003e0: fa20 03be 592a 68bd e91c 97bd 8c05 153d
000003f0: 7e67 23bd 3263 be3d b346 b9bd 32dd b8bd

fc4.bias f4 [30]
0.053082496 0.084961094 -0.003931083 0.093101844 0.071698315 0.0623252 0.07138883 0.078900404
0.010768948 0.06564513 -0.05450419 0.05391248 0.07180001 -0.057271693 -0.07301787 0.081218235
0.028745327 0.0446798 0.041898124 -0.002714336 0.019531634 0.013119923 -0.0016716063 0.0459135
-0.07270779 0.03746304 0.04016987 -0.043055587 0.04791778 -0.0779344
00000000: 086d 593d 1500 ae3d 50d0 80bb 2eac be3d
00000010: 91d6 923d b548 7f3d 4f34 923d 8996 a13d
00000020: 3e70 303c f470 863d c93f 5fbd 55d3 5c3d
00000030: e20b 933d b995 6abd 658a 95bd bf55 a63d
00000040: 527b eb3c 2a02 373d 5e9d 2b3d 00e3 31bb
00000050: ce00 a03c f2f4 563c cd19 dbba cb0f 3c3d
00000060: d2e7 94bd d872 193d 2989 243d 0e5b 30bd
00000070: 6f45 443d 129c 9fbd
