model.pt (torch, 260215 bytes, 8 tensors)

fc1.weight f4 [128, 193]
-0.06242729 0.057408944 0.023946866 -0.0051316745 -0.0029783135 0.031109603 -0.024594113 -0.06639813
0.063301325 0.043055885 -0.07457972 -0.010418831 0.009448786 0.009474444 0.021864997 0.068900354
0.06006387 -0.007101553 -0.030144932 -0.039028384 0.046952873 0.031048516 0.018990269 0.039065253
0.026817312 -0.008336538 0.04587032 -0.008881436 -0.020387288 0.015738837 -0.0062730527 0.046968933
0.05608246 -0.046155382 0.06560913 0.06077513 -0.04480712 0.010326106 0.065218225 0.06031834
0.043791484 0.008885918 -0.022948153 0.041783724 0.03709143 -0.015898751 -0.031990852 -0.011650867
-0.04234724 -0.057396777 -0.016952861 -0.04988141 -0.008299982 -0.025889628 -0.057661436 -0.035617813
-0.04276471 -0.075608 0.026288321 -0.075636536 -0.032459497 -0.013662631 -0.062025186 0.015911996
-0.060203604 0.033744473 -0.022225892 0.007080484 -0.039624844 0.029327143 0.0027211467 -0.0145316385
-0.062168967 -0.078050196 -0.061949074 -0.02428348 0.05132234 -0.054582592 -0.06776143 -0.019098325
-0.018824765 -0.047995623 -0.005646959 -0.050136518 0.06338489 0.062400106 -0.037265833 0.043148655
0.07606624 0.013217339 0.01444971 0.0011533124 0.046805706 -0.030640123 0.0235964 0.008345129
-0.0012108777 -0.0077328077 -0.07030267 -0.02589224 0.057567418 0.020778589 -0.01484147 -0.053060997
-0.0138775585 -0.05426024 0.0049202973 -0.025391292 -0.052679215 -0.006222342 -0.03677811 -0.036766972
0.07040518 0.04496892 -0.01827459 0.030231172 0.024020031 0.08688855 0.08355643 0.018570285
-0.06314359 -0.031314645 0.046267368 0.037908003 0.03223313 0.045417428 -0.05218564 -0.048835214
0.061489772 0.059793513 0.0763902 0.057825215 -0.0052323304 -0.04189459 0.03746524 0.014332141
-0.052733436 0.069851734 -0.0047973725 0.004161573 -0.036781322 0.03796347 0.07190826 -0.040233877
0.05214586 0.05434706 -0.031310737 -0.03987652 0.015130648 -0.011332385 0.021110123 0.00052506593
0.044483703 0.009584732 0.045255337 -0.036148358 -0.061609037 -0.017461661 0.055601593 0.027715998
0.04925296 0.0039191046 -0.012624135 -0.05848458 0.019407079 0.04633251 -0.019530417 -0.06679758
-0.039645053 -0.019311965 -0.08328823 0.049556468 -0.06610955 -0.051048342 -0.036910247 -0.05189835
0.007166164 -0.06542929 0.053776987 -0.06373468 0.05430705 0.068220526 0.015391314 0.079447836
0.07069504 0.0066928957 -0.047950383 0.039073423 -0.053571045 -0.058362637 -0.031548128 -0.009713204
0.06757221 0.014142981 0.075722404 0.005513042 0.04982155 0.06669222 -0.0047101765 0.06511345
0.019545913 -0.050153032 -0.04686331 0.03381091 -0.0029344773 0.061866287 -0.03227463 0.011150745
0.06922904 -0.010380852 0.04509401 -0.06323729 0.040023804 -0.06521083 0.06687734 0.03304381
-0.042159732 -0.019297408 -0.030034674 -0.06122485 -0.032850552 -0.023610447 0.059807975 0.014895808
-0.007539455 -0.052764166 -0.028243138 -0.05136134 0.027107215 -0.06093262 0.03351242 -0.024365548
0.05031485 0.014459824 0.048963174 -0.0538959 -0.034096118 0.051019013 0.05657337 0.05228125
0.05623982 0.0042508435 -0.04997202 -0.007181849 -0.015118467 0.009787651 -0.02908033 -0.05584889
0.009478863 0.014693258 0.06739824 0.011083772 -0.036990292 0.049427424 0.06776562 0.049127374
00000000: c2b3 7fbd a425 6b3d 382c c43c 9b27 a8bb
00000010: cf2f 43bb 91d9 fe3c 9879 c9bc befb 87bd
00000020: 20a4 813d 5e5b 303d 41bd 98bd bfb3 2abc
00000030: 15cf 1a3c b33a 1b3c 391e b33c a11b 8d3d
00000040: 8805 763d 25b4 e8bb 81f2 f6bc 3adc 1fbd
00000050: a851 403d 7559 fe3c 7b91 9b3c e302 203d
00000060: fbaf db3c fa95 08bc 84e2 3b3d 7183 11bc
00000070: 3e03 a7bc bcee 803c 2e8e cdbb 7f62 403d
00000080: b9b6 653d 6d0d 3dbd 145e 863d 58ef 783d
00000090: ac87 37bd d42e 293c 2291 853d 5d10 773d
000000a0: b35e 333d 3e96 113c c4fd bbbc 6925 2b3d
000000b0: 2fed 173d 193e 82bc d708 03bd 47e3 3ebc
000000c0: 4d74 2dbd e218 6bbd bae0 8abc 7350 4cbd
000000d0: a6fc 07bc 7c16 d4bc 662e 6cbd fce3 11bd
000000e0: 0c2a 2fbd 5ed8 9abd 9b5a d73c 54e7 9abd
000000f0: 40f4 04bd 3ad9 5fbc 1f0e 7ebd e059 823c
00000100: 0e98 76bd a537 0a3d 1313 b6bc 6803 e83b
00000110: a94d 22bd 7a3f f03c 4455 323b 1c16 6ebc
00000120: e3a4 7ebd c8d8 9fbd 50be 7dbd 26ee c6bc
00000130: 6037 523d ff91 5fbd 81c6 8abd 1774 9cbc
00000140: 6536 9abc 0f97 44bd 200a b9bb f35b 4dbd
00000150: f0cf 813d 4197 7f3d 0fa4 18bd a5bc 303d
00000160: 9ec8 9b3d 8a8d 583c 7abe 6c3c be2a 973a
00000170: 57b7 3f3d ff00 fbbc 3d4d c13c 02ba 083c
00000180: 50b6 9eba 7e63 fdbb d9fa 8fbd f71b d4bc
00000190: d0cb 6b3d dc37 aa3c a329 73bc 7d56 59bd
000001a0: b35e 63bc fc3f 5ebd 723a a13b 6601 d0bc
000001b0: 29c6 57bd cae4 cbbb a5a4 16bd f798 16bd
000001c0: 9730 903d 5531 383d 98b4 95bc 5da7 f73c
000001d0: a8c5 c43c a0f2 b13d a21f ab3d b620 983c
000001e0: 6d51 81bd c943 00bd da82 3d3d 6c45 1b3d
000001f0: e306 043d a007 3a3d 9cc0 55bd 6f07 48bd
00000200: b3dc 7b3d 0bea 743d 7772 9c3d 22da 6c3d
00000210: f873 abbb a999 2bbd 2775 193d 5bd1 6a3c
00000220: 04ff 57bd 6d0e 8f3d 4733 9dbb ce5d 883b
00000230: 03a8 16bd 957f 1b3d a344 933d 47cc 24bd
00000240: e696 553d 069b 5e3d b03f 00bd 9055 23bd
00000250: 8ae6 773c 78ab 39bc 23ef ac3c 94a4 093a
00000260: 8b34 363d 4809 1d3c a95d 393d 4d10 14bd
00000270: c259 7cbd c20b 8fbc 7fbe 633d a90c e33c
00000280: 79bd 493d d56b 803b 76d5 4ebc 878d 6fbd
00000290: 98fb 9e3c 28c7 3d3d 41fe 9fbc 2bcd 88bd
000002a0: da62 22bd 2034 9ebc 0593 aabd b9fb 4a3d
000002b0: 7264 87bd 1118 51bd 332f 17bd 5d93 54bd
000002c0: 24d2 ea3b cbff 85bd 4245 5c3d 5487 82bd
000002d0: 1271 5e3d 34b7 8b3d da2b 7c3c 8cb5 a23d
000002e0: 90c8 903d 1450 db3b 9f67 44bd 740b 203d
000002f0: 506d 5bbd a90d 6fbd 9c38 01bd 2124 1fbc
00000300: 4d63 8a3d f6b7 673c 5914 9b3d c0a6 b43b
00000310: ae11 4c3d ee95 883d d357 9abb 335a 853d
00000320: c01e a03c 446d 4dbd bef3 3fbd 4f7d 0a3d
00000330: 5c50 40bb 8167 7d3d 6732 04bd 9db1 363c
00000340: f4c7 8d3d 7314 2abc 7fb4 383d 8d82 81bd
00000350: 00f0 233d 418d 85bd fdf6 883d f258 073d
00000360: afaf 2cbd 9915 9ebc 470b f6bc e9c6 7abd
00000370: 4d8e 06bd b26a c1bc 35f9 743d 8c0d 743c
00000380: 880d f7bb 3d1f 58bd 275e e7bc 4560 52bd
00000390: f30f de3c 7c94 79bd 5244 093d 429a c7bc
000003a0: f216 4e3d e6e8 6c3c 9c8d 483d f2c1 5cbd
000003b0: 5fa8 0bbd 50f9 503d 7ab9 673d dd24 563d
000003c0: ba5b 663d a94a 8b3b 76af 4cbd b755 ebbb
000003d0: 72b3 77bc 625c 203c df39 eebc cec1 64bd
000003e0: 3c4d 1b3c febb 703c 1708 8a3d b698 353c
000003f0: 2283 17bd 6974 4a3d b4c8 8a3d c939 493d

fc1.bias f4 [128]
-0.009743644 -0.0126686115 -0.037327945 -0.023874661 -0.04814925 -0.07092832 -0.07336025 0.06418806
-0.053052552 0.0044761887 0.015957663 0.022506915 -0.014102492 0.05804373 -0.0521393 -0.05291878
-0.034468684 -0.055431124 0.03236169 -0.048726827 0.042116556 0.04566149 0.08116738 -0.059712123
-0.0068679447 -0.0014426451 0.028220711 -0.016628144 0.027590008 -0.0050790603 0.07745177 0.0015625225
-0.0017341841 -0.034259826 0.08042908 0.0051514776 0.0027315433 0.05321089 -0.061124504 0.0328783
-0.043259062 0.0036541768 0.016071552 0.051005263 -0.063216105 0.07229374 0.05077246 -0.008827943
0.06325793 -0.012860212 0.044577993 -0.03387988 0.009307855 -0.04802253 0.07235037 0.019808011
0.02259323 -0.03693062 -0.017418379 -0.0245272 -0.01581979 0.039571766 -0.057367634 -0.040586047
-0.0410435 0.048129123 0.024780814 0.04140872 0.012845362 -0.035629854 0.07855548 -0.030337963
-0.05145308 0.046912547 0.016783575 -0.05580745 -0.037576627 0.019679513 0.0050979787 0.021102397
0.04919853 0.011354141 0.009728125 -0.014846818 0.049978938 -0.009203023 -0.028032837 0.019228203
0.035636775 0.0762364 -0.05594708 0.07505543 -0.03719507 -0.056407105 -0.0467447 0.009692662
0.088429056 0.0088059055 0.017425558 0.023383865 -0.018899437 -0.037225954 0.037802935 0.052918293
0.035822947 0.070419446 0.028009685 -0.0076082703 0.0010217115 0.05328516 -0.014170334 0.05563058
0.08096194 -0.024745349 0.04991961 0.027921459 0.014626739 -0.042697787 -0.027045721 0.0022663348
0.018090809 -0.027795913 0.028729249 -0.05190135 -0.023379754 -0.06385866 0.0037590363 0.036288045
00000000: cea3 1fbc 0290 4fbc 30e5 18bd cb94 c3bc
00000010: 2638 45bd de42 91bd e63d 96bd 0875 833d
00000020: a24d 59bd feac 923b a5b9 823c 6c60 b83c
00000030: 230e 67bc 43bf 6d3d 0590 55bd 5dc1 58bd
00000040: 092f 0dbd bf0b 63bd b18d 043d c895 47bd
00000050: 6982 2c3d 8b07 3b3d 153b a63d b394 74bd
00000060: 7f0c e1bb 2317 bdba 1f2f e73c bf37 88bc
00000070: 7104 e23c 3f6e a6bb 099f 9e3d 8ecd cc3a
00000080: 904d e3ba 0854 0cbd 00b8 a43d bacd a83b
00000090: b103 333b aaf3 593d b05d 7abd 65ab 063d
000000a0: 6a30 31bd ea7a 6f3b 7da8 833c e5ea 503d
000000b0: 7277 81bd be0e 943d c8f6 4f3d 14a3 10bc
000000c0: 608d 813d a3b3 52bc 6a97 363d a1c5 0abd
000000d0: f97f 183c 46b3 44bd 6e2c 943d 6944 a23c
000000e0: 7015 b93c 9044 17bd fdb0 8ebc 44ed c8bc
000000f0: 8198 81bc 0116 223d 53fa 6abd 8e3d 26bd
00000100: 3b1d 28bd 0b23 453d 2201 cb3c 319c 293d
00000110: 5a75 523c 9cf0 11bd b2e1 a03d 5287 f8bc
00000120: 77c0 52bd 5f27 403d b57d 893c 5a96 64bd
00000130: f3e9 19bd ee36 a13c f20c a73b efde ac3c
00000140: 6684 493d b806 3a3c b762 1f3c 1140 73bc
00000150: b7b6 4c3d 47c8 16bc 1fa5 e5bc 7784 9d3c
00000160: def7 113d d421 9c3d c428 65bd a9b6 993d
00000170: dc59 18bd 230b 67bd 5f77 3fbd f9cd 1e3c
00000180: 4b1a b53d a546 103c 0bc0 8e3c 858f bf3c
00000190: fed2 9abc 3e7a 18bd 40d7 1a3d dac0 583d
000001a0: 15bb 123d 1238 903d 9174 e53c cc4e f9bb
000001b0: f3ea 853a 8a41 5a3d b02a 68bc e4dc 633d
000001c0: 60cf a53d c2b6 cabc 8178 4c3d 8bbb e43c
000001d0: fda4 6f3c e0e3 2ebd fd8e ddbc ca86 143b
000001e0: 2d33 943c 41b4 e3bc 9a59 eb3c 8396 54bd
000001f0: e686 bfbc 54c8 82bd 2a5a 763b c6a2 143d

fc2.weight f4 [128, 128]
-0.07359532 0.09005782 0.013803855 -0.019127427 0.095007434 0.0029221661 0.029274799 0.09268448
0.050586063 -0.048826277 -0.00885148 -0.025629994 0.0073220306 0.053382657 -0.054353606 0.054601546
0.024744418 -0.043282285 -0.0074078217 0.0680978 0.05227189 0.08372368 0.035341896 -0.0543653
0.0831772 0.10649464 -0.012953595 -0.004159995 -0.023749478 0.02393772 -0.023542965 0.033494268
8.0066915e-05 -0.061518423 0.05978836 -0.05066125 -0.04409425 -0.05617193 0.097377084 0.05542315
-0.0059299585 -0.07056235 0.04142943 -0.030899154 -0.052232854 0.07884199 0.09674432 -0.07248188
0.043985374 0.026825927 -0.036911834 -0.06968196 0.04150449 0.05941854 -0.03510783 0.0864028
-0.026094547 0.031462826 0.02095584 0.025563434 -0.05148946 -0.027613599 0.043784246 0.07180201
-0.08354878 -0.08288704 0.042697534 -0.07677306 -0.05800732 0.050433584 0.101064436 0.02937622
-0.045313723 0.018195232 0.07187644 -0.035492044 0.08459896 -0.02257958 0.04024992 -0.06650054
-0.091431156 -0.020978663 -0.062843926 0.0728593 0.063975684 -0.004066259 0.07551708 -0.024394557
0.07122063 0.08239721 -0.047310866 0.070764504 -0.04010597 -0.06116326 0.032040983 -0.0823852
0.07407431 0.105768755 0.02552022 0.018824628 0.08214206 0.023102773 0.014701547 -0.058065858
0.0038827495 0.011612831 0.03677377 0.056319866 -0.017992122 -0.031061452 0.0633626 0.03694727
-0.060698822 0.0075114807 0.068123765 -0.08738765 0.07027191 0.002642564 0.07153904 -0.015075132
0.029249992 -0.05208727 -0.07383403 0.086100414 0.032094363 0.03445827 -0.07928029 0.0035760193
-0.09198169 -0.0012299785 -0.022482136 0.06922082 0.030021526 0.011811462 0.069956034 -0.012232031
0.037691187 0.030629687 0.071451545 -0.032516725 0.07916723 -0.004873256 0.03033198 0.051225208
-0.009246923 0.008228964 0.023573173 0.102209866 0.018112503 0.07022888 -0.09201275 0.045051705
-0.0071936375 -0.0063444832 -0.04235715 -0.067706406 0.019029869 0.002841515 0.034549497 -0.017440222
-0.031380832 -0.033675797 -0.038110662 -0.0046832883 0.059651114 -0.07203429 0.070044614 -0.023847599
0.0012384874 -0.007519291 0.057592895 -0.031277236 0.05561216 -0.08203514 0.070262425 0.0093654785
0.0468847 0.0186265 -0.050406784 0.036788333 0.067715816 -0.04038724 -0.084993206 -0.04785943
-0.013637985 0.09001313 0.03992931 0.035897296 0.0821463 0.023846254 0.02965051 -0.006760412
-0.031674348 -0.00027602105 0.06689705 0.05767098 -0.03490217 0.049509566 0.042528547 -0.08229491
-0.078059174 0.05975066 0.04229117 -0.032410108 0.08549083 0.08954472 -0.02018961 -0.06853726
0.026078166 0.0447805 0.048909146 -0.09054489 -0.021801133 0.02777068 0.035821576 -0.075423814
-0.070066914 0.058576982 0.067849815 0.0651477 0.0097869355 0.023302112 0.051449087 0.019435745
0.06859406 0.011524255 0.032841668 0.08472451 0.01225196 -0.0016468368 0.0982953 0.04205435
-0.07585017 -0.02336479 0.029055595 0.023788806 0.053797375 0.07868442 0.07996307 0.090892896
0.08638626 -0.025260413 0.06854047 -0.07911991 0.068131134 -0.038224943 0.011015547 0.06660095
-0.045668337 -0.014267144 -0.08517344 -0.010911259 -0.02722804 -0.057280056 -0.07371906 0.035767075
00000000: 25b9 96bd 3c70 b83d 9029 623c 1fb1 9cbc
00000010: 4293 c23d d081 3f3b b4d1 ef3c 5cd1 bd3d
00000020: 5533 4f3d 10fe 47bd cc05 11bc fef5 d1bc
00000030: a5ed ef3b c6a7 5a3d e3a1 5ebd dfa5 5f3d
00000040: ceb4 ca3c c448 31bd 50bd f2bb dc76 8b3d
00000050: 0d1b 563d 5277 ab3d aac2 103d 26ae 5ebd
00000060: cf58 aa3d dd19 da3d 513b 54bc 9150 88bb
00000070: 448e c2bc 0a19 c43c 2ddd c0bc 4931 093d
00000080: 99e9 a738 befa 7bbd a4e4 743d 2c82 4fbd
00000090: 2c9c 34bd 8a14 66bd a36d c73d 6303 633d
000000a0: 1950 c2bb fe82 90bd e8b1 293d 3920 fdbc
000000b0: 1ef2 55bd e977 a13d e321 c63d 6171 94bd
000000c0: 022a 343d 0cc2 db3c dd30 17bd 6ab5 8ebd
000000d0: 9d00 2a3d db60 733d 3acd 0fbd f4f3 b03d
000000e0: 3bc4 d5bc 2adf 003d 95ab ab3c 686a d13c
000000f0: 9de6 52bd ea35 e2bc 1c57 333d ef0c 933d
00000100: 9f1b abbd aec0 a9bd 9ce3 2e3d 323b 9dbd
00000110: 1599 6dbd 7293 4e3d dffa ce3d 66a6 f03c
00000120: e29a 39bd 2b0e 953c f433 933d 1b60 11bd
00000130: 3842 ad3d d0f8 b8bc 1add 243d 6f31 88bd
00000140: 4240 bbbd 72db abbc 51b4 80bd 4237 953d
00000150: af05 833d 413e 85bb b3a8 9a3d 18d7 c7bc
00000160: 1fdc 913d debf a83d 0ac9 41bd fbec 903d
00000170: 2846 24bd 5486 7abd 683d 033d 92b9 a8bd
00000180: 46b4 973d 4a9d d83d c80f d13c 1b36 9a3c
00000190: 193a a83d 0742 bd3c c2de 703c 77d6 6dbd
000001a0: ba75 7e3b be43 3e3c 18a0 163d a9af 663d
000001b0: 3764 93bc 9674 febc 40c4 813d 0556 173d
000001c0: 549f 78bd de22 f63b 7984 8b3d 4cf8 b2bd
000001d0: b8ea 8f3d de2e 2d3b 0f83 923d b0fd 76bc
000001e0: ae9d ef3c 7659 55bd 4c36 97bd 6a55 b03d
000001f0: 6175 033d 1d24 0d3d b45d a2bd a65b 6a3b
00000200: e560 bcbd 3b37 a1ba 752c b8bc a5c3 8d3d
00000210: b4ef f53c dd84 413c 1c45 8f3d db68 48bc
00000220: 1362 1a3d 1ceb fa3c 3055 923d 4230 05bd
00000230: 6e22 a23d d6af 9fbb c67a f83c 86d1 513d
00000240: 6880 17bc c7d2 063c 871c c13c 6853 d13d
00000250: ac60 943c 29d4 8f3d 2e71 bcbd 2388 383d
00000260: 9bb8 ebbb 62e5 cfbb b17e 2dbd a8a9 8abd
00000270: 87e4 9b3c b638 3a3b c683 0d3d ccde 8ebc
00000280: 3089 00bd a2ef 09bd ed19 1cbd 4576 99bb
00000290: ba54 743d b786 93bd 8d73 8f3d 0a5c c3bc
000002a0: be54 a23a 6264 f6bb 87e6 6b3d 8f1c 00bd
000002b0: 94c9 633d 0a02 a8bd bfe5 8f3d aa71 193c
000002c0: 2c0a 403d 9a96 983c 5877 4ebd 5daf 163d
000002d0: 97ae 8a3d 176d 25bd eb10 aebd 4008 44bd
000002e0: db71 5fbc ce58 b83d eb8c 233d 0b09 133d
000002f0: 523c a83d 3859 c33c a0e5 f23c 7286 ddbb
00000300: f6bc 01bd ebb6 90b9 5201 893d 6838 6c3d
00000310: 94f5 0ebd 8bca 4a3d 6a32 2e3d 3c8a a8bd
00000320: 7ddd 9fbd 1cbd 743d 8239 2d3d 76c0 04bd
00000330: d115 af3d 3963 b73d ae64 a5bc 435d 8cbd
00000340: e1a1 d53c c26b 373d f554 483d 996f b9bd
00000350: 4a98 b2bc 567f e33c a5b9 123d cd77 9abd
00000360: 3e7f 8fbd 6bee 6f3d d8f4 8a3d 286c 853d
00000370: 6259 203c 12e4 be3c 47bc 523d b637 9f3c
00000380: 0b7b 8c3d 3bd0 3c3c fc84 063d 0b84 ad3d
00000390: 72bc 483c acda d7ba 0c4f c93d 2f41 2c3d
000003a0: 5557 9bbd 8467 bfbc 0006 ee3c bee0 c23c
000003b0: a35a 5c3d 4c25 a13d aec3 a33d 0e26 ba3d
000003c0: 48eb b03d edee cebc f25e 8c3d 9f09 a2bd
000003d0: 5688 8b3d c291 1cbd 8e7a 343c 1466 883d
000003e0: b90e 3bbd bdc0 69bc 6a6f aebd 23c5 32bc
000003f0: 570d dfbc 7e9e 6abd 05fa 96bd 7f80 123d

fc2.bias f4 [128]
-0.05389501 -0.017164605 0.09161668 0.048786033 -0.050587088 0.0022382909 0.006656953 0.08534018
-0.06531893 0.05280322 0.04070273 -0.017549513 0.079722315 -0.02774585 0.06853432 0.01959766
-0.007875041 0.06826354 -0.08422071 -0.04365278 0.02433284 -0.06708619 0.0525725 0.03535222
-0.09376582 -0.055321284 0.06578112 0.04515785 0.08821481 -0.073250435 0.06464796 -0.036773514
-0.026560277 -0.044801053 -0.011716135 -0.0067639234 -0.047630966 0.06968309 0.059143852 0.048131976
-0.029526599 0.027288945 0.020131214 0.053833783 -0.09441094 0.050910767 0.087707534 0.09942155
-0.02344614 -0.015857825 -0.02303902 0.03367762 -0.01260952 0.05756655 -0.05646651 0.013728328
0.04449342 -0.009745319 -0.063531525 -0.06025312 -0.034406565 0.06850987 0.078001305 0.060817562
-0.04175359 0.07176255 -0.0093849795 -0.013989004 0.07281197 0.045392055 0.07670286 0.06907702
0.09144529 0.018953893 0.01732773 -0.039756957 0.019709505 -0.003481383 0.026270393 0.061140172
0.062393464 0.0687014 0.07535301 -0.008409042 0.0063049057 -0.020522334 0.00048476318 -0.08873233
-0.08717667 -0.042295184 0.027525486 0.0148351975 0.10114508 -0.07302722 -0.025945628 0.08138438
0.094745725 0.09269041 -0.052449144 0.05440767 -0.057973377 0.08007773 -0.08863367 0.057915278
0.00475933 -0.06763732 -0.03318205 -0.0035533877 0.04384026 0.0019595588 0.008268631 -0.04488187
0.0137082245 0.0544334 0.05052188 0.0149115585 0.02195083 0.07974541 0.016100934 0.019560324
0.010090839 0.08447734 0.006876808 -0.02205083 -0.026248343 0.040559478 -0.07244045 0.090937205
00000000: 04c1 5cbd c99c 8cbc 87a1 bb3d ddd3 473d
00000010: 6834 4fbd 4ab0 123b 9222 da3b d5c6 ae3d
00000020: eec5 85bd 3048 583d e8b7 263d ffc3 8fbc
00000030: 7445 a33d 444b e3bc b95b 8c3d 468b a03c
00000040: 5106 01bc c1cd 8b3d e87b acbd 42cd 32bd
00000050: aa55 c73c 7c64 89bd 4356 573d 7dcd 103d
00000060: 4b08 c0bd 9298 62bd 40b8 863d 70f7 383d
00000070: f7a9 b43d 5304 96bd 2666 843d d39f 16bd
00000080: f094 d9bc 4f81 37bd 08f5 3fbc e7a3 ddbb
00000090: b018 43bd 02b6 8e3d d340 723d 0926 453d
000000a0: c4e1 f1bc 118d df3c 37ea a43c d080 5c3d
000000b0: 865a c1bd cf87 503d 02a0 b33d 879d cb3d
000000c0: 1f12 c0bc 45e8 81bc 54bc bcbc 8bf1 093d
000000d0: 2998 4ebc e7ca 6b3d 6d49 67bd c8ec 603c
000000e0: bb3e 363d d5aa 1fbc d11c 82bd facb 76bd
000000f0: e6ed 0cbd e74e 8c3d 26bf 9f3d d61b 793d
00000100: d005 2bbd 3ef8 923d 75c3 19bc 2332 65bc
00000110: 711e 953d 05ed 393d 6416 9d3d 4178 8d3d
00000120: ab47 bb3d 3245 9b3c e2f2 8d3c 31d8 22bd
00000130: d475 a13c ea27 64bb 0235 d73c 1e6e 7a3d
00000140: 4a90 7f3d 52b3 8c3d ae52 9a3d 14c6 09bc
00000150: 6299 ce3b 741e a8bc d027 fe39 4cb9 b5bd
00000160: af89 b2bd b73d 2dbd 217d e13c 540f 733c
00000170: 2725 cf3d 4c8f 95bd ed8b d4bc dbac a63d
00000180: 0c0a c23d 78d4 bd3d ead4 56bd 94da 5e3d
00000190: 7e75 6dbd cbff a33d 9285 b5bd 9238 6d3d
000001a0: 27f4 9b3b 6f85 8abd e7e9 07bd f4df 68bb
000001b0: d891 333d f16b 003b 2779 073c 0dd6 37bd
000001c0: 7698 603c 8ff5 5e3d 08f0 4e3d 9c4f 743c
000001d0: 3ad2 b33c 9051 a33d 1be6 833c f93c a03c
000001e0: 0c54 253c 7502 ad3d d956 e13b f1a3 b4bc
000001f0: c406 d7bc b221 263d a95b 94bd 493d ba3d

fc3.weight f4 [100, 128]
-0.039372813 -0.010626684 -0.054236375 -0.034098566 0.057170365 0.07753687 -0.095962666 -0.02339514
0.022447327 -0.022815835 0.013335909 -0.03616641 -0.0911066 0.0018195638 0.06976481 0.07681783
0.031317085 -0.0568311 0.039218023 0.07905851 -0.06773919 0.025159856 -0.019063083 0.047128327
0.05699981 0.03545337 0.00567362 0.09274105 -0.09664875 -0.0027805062 -0.047449004 -0.078878455
0.0063215764 -0.09677007 0.059177388 -0.027133437 -0.020329526 0.038299676 0.018439168 0.03655449
-0.03551857 0.018407146 0.051561896 -0.07699642 -0.053433754 0.059181225 0.01767847 0.09102335
-0.047850385 -0.09574348 -0.031794228 -0.011620902 -0.009934746 0.084266305 -0.046484105 0.062016785
-0.025449416 0.031015934 0.022787262 0.009508068 -0.058616973 -0.0021407376 0.04795567 0.06204399
0.05042509 -0.020252783 -0.05985957 -0.047079157 -0.083772354 -0.08525798 0.08249724 0.05300101
0.057193436 -0.089070134 0.052770827 -0.07382595 0.087309636 0.008394661 -0.05195607 -0.012332703
0.0028135858 0.0052926447 -0.010042589 -0.033695173 -0.007968989 0.027245803 0.074314654 -0.022416236
0.012377074 0.021211632 -0.0880996 0.0068838727 -0.031016774 0.0784802 0.00012119347 0.03988007
-0.031505816 0.047399722 0.037483625 -0.0036819463 0.04944155 0.03891736 0.037807938 0.008825658
-0.008821128 0.023402877 0.036140937 -0.038480915 0.08086198 0.080667906 -0.019740438 0.04677898
0.035614226 0.015803987 -0.07127143 0.005598132 0.08387631 -0.050154902 -0.049818497 -0.020366408
-0.047953706 0.009209593 0.021269862 0.028203446 -0.052912846 0.07587432 -0.045833036 0.08156348
0.03130177 -0.004480598 0.06301237 -0.013034782 0.017505378 -0.06922672 -0.012022018 0.014116065
0.057384454 0.086742386 0.021000521 -0.04531861 -0.031352848 0.071265094 -0.04308739 0.008502854
-0.002214056 -0.018321652 -0.0019928908 -0.0057685934 -0.048963506 0.070958406 0.031186538 0.0042501907
-0.092011504 -0.0037871264 0.059967477 0.059049387 0.014458191 0.05126896 0.034461044 -0.028196331
0.06478175 -0.022081379 0.081256874 0.05331314 0.06321216 0.08681672 0.06800604 0.028908832
0.018073086 -0.012996164 0.051859304 0.060085967 0.02236678 0.021167058 -0.0028734503 0.020624438
0.01990225 0.044663675 0.030352999 -0.011305307 -0.050143596 -0.080989 -0.079624236 0.018037917
0.0075192824 0.043602124 0.057114586 -0.057031665 0.005537361 0.013664555 -0.049773984 -0.027066913
0.0679793 -0.053178087 -0.018152084 0.006720307 -0.07387753 5.923657e-05 -0.055721343 -0.007971244
0.010569189 0.08977931 -0.03176143 -0.065949395 0.07316841 -0.07406702 0.020140888 0.08398304
0.010535201 0.055079665 -0.041235153 -0.02103562 0.04095647 0.05536387 -0.038991287 -0.07632576
-0.07575842 -0.020377398 0.085135415 -0.07086549 -0.06627557 0.07939608 -0.019568559 0.083404824
-0.0490866 -0.052347317 0.033799894 -0.08595068 -0.020462895 0.040300496 -0.056017037 0.02483646
-0.017706078 0.031895295 0.08023696 -0.078049965 -0.055478502 0.0121386 0.053013436 -0.057442788
-0.063837074 -0.046876453 0.050745167 0.021684611 -0.016086193 0.058928043 0.06473598 -0.0008475826
-0.07202336 -0.03464817 0.021189563 -0.08266634 0.062895395 -0.014020142 0.038471464 0.085460894
00000000: 6345 21bd 8b1b 2ebc f626 5ebd f0aa 0bbd
00000010: 792b 6a3d a7cb 9e3d 1388 c4bd 2aa7 bfbc
00000020: 75e3 b73c 46e8 babc db7e 5a3c 3b23 14bd
00000030: 1996 babd 6e7e ee3a dae0 8e3d ab52 9d3d
00000040: 5846 003d bac7 68bd 14a3 203d 6ee9 a13d
00000050: d8ba 8abd 0b1c ce3c 2f2a 9cbc a209 413d
00000060: a278 693d 8e37 113d c6e9 b93b 05ef bd3d
00000070: c8ef c5bd 2739 36bb e359 42bd 078b a1bd
00000080: 3a25 cf3b 632f c6bd fd63 723d f146 debc
00000090: 1b8a a6bc 1fe0 1c3d bd0d 973c 29ba 153d
000000a0: ec7b 11bd 95ca 963c 9132 533d 4db0 9dbd
000000b0: 5add 5abd 0368 723d 70d2 903c 736a ba3d
000000c0: c4fe 43bd 2815 c4bd aa3a 02bd 9965 3ebc
000000d0: 58c5 22bc d093 ac3d 1e66 3ebd 5005 7e3d
000000e0: 4b7b d0bc 2115 fe3c 5aac ba3c bac7 1b3c
000000f0: 5a18 70bd 9e4b 0cbb 2a6d 443d d721 7e3d
00000100: 8a8a 4e3d 2ae9 a5bc 4f2f 75bd 13d6 40bd
00000110: d790 abbd bc9b aebd 50f4 a83d 9617 593d
00000120: aa43 6a3d 676a b6bd 3926 583d 0f32 97bd
00000130: 65cf b23d c389 093c e3cf 54bd 1b0f 4abc
00000140: 2364 383b ec6d ad3b ac89 24bc f303 0abd
00000150: 5d90 02bc 9732 df3c 4832 983d 41a2 b7bc
00000160: 36c9 4a3c 04c4 ad3c 906d b4bd 1c92 e13b
00000170: e416 febc 3aba a03d 4029 fe38 4959 233d
00000180: 3e0c 01bd 3626 423d 6e88 193d cf4c 71bb
00000190: 3983 4a3d cf67 1f3d 7fdc 1a3d 7e99 103c
000001a0: 7e86 10bc 64b7 bf3c 8508 143d 2a9e 1dbd
000001b0: f79a a53d 3735 a53d b3b6 a1bc 519b 3f3d
000001c0: 39e0 113d 5d77 813c c1f6 91bd 8970 b73b
000001d0: 58c7 ab3d 3a6f 4dbd 7b0e 4cbd 74d7 a6bc
000001e0: 1b6b 44bd d5e3 163c 223e ae3c ea0a e73c
000001f0: 24bb 58bd ff63 9b3d 6cbb 3bbd c10a a73d
00000200: 4936 003d fbd1 92bb a10c 813d d78f 55bc
00000210: 7067 8f3c bdc6 8dbd 00f8 44bc 1147 673c
00000220: f60b 6b3d fea5 b13d 4909 ac3c 02a0 39bd
00000230: d86b 00bd 6ff3 913d 677c 30bd 8e4f 0b3c
00000240: b219 11bb 4a17 96bc 299b 02bb 7806 bdbb
00000250: f58d 48bd a452 913d e97a ff3c 2f45 8b3b
00000260: 8770 bcbd 7031 78bb 75a0 753d c5dd 713d
00000270: 0ce2 6c3c 67ff 513d 0627 0d3d fefb e6bc
00000280: 4bac 843d 02e4 b4bc 016a a63d e15e 5a3d
00000290: 6075 813d f7cc b13d c046 8b3d 37d2 ec3c
000002a0: 020e 943c dded 54bc 6c6a 543d b41c 763d
000002b0: 8a3a b73c 8a66 ad3c 7f50 3cbb 95f4 a83c
000002c0: 0b0a a33c 42f1 363d daa6 f83c e539 39bc
000002d0: 5f63 4dbd 90dd a5bd 0812 a3bd 41c4 933c
000002e0: 5064 f63b 2498 323d fcf0 693d 099a 69bd
000002f0: c072 b53b 4ce1 5f3c cedf 4bbd 6ebb ddbc
00000300: bb38 8b3d 44d1 59bd aeb3 94bc 0536 dc3b
00000310: 1a4d 97bd c874 7838 103c 64bd d299 02bc
00000320: 642a 2d3c 37de b73d 4618 02bd 7a10 87bd
00000330: 52d9 953d 73b0 97bd 81fe a43c 4dff ab3d
00000340: d69b 2c3c 379b 613d 31e6 28bd e452 acbc
00000350: f9c1 273d 3ac5 623d 54b5 1fbd ae50 9cbd
00000360: 3b27 9bbd 80ee a6bc 7a5b ae3d ed21 91bd
00000370: 7cbb 87bd 699a a23d 3e4e a0bc 26d0 aa3d
00000380: 080f 49bd 246a 56bd c271 0a3d e906 b0bd
00000390: cda1 a7bc 2212 253d 1f72 65bd d575 cb3c
000003a0: 560c 91bc a4a4 023d 4653 a43d a9d8 9fbd
000003b0: 6d3d 63bd fbe0 463c 9e24 593d 2149 6bbd
000003c0: 03bd 82bd 8601 40bd 2ada 4f3d eda3 b13c
000003d0: 31c7 83bc 885e 713d 4c94 843d 4e30 5eba
000003e0: fc80 93bd 3deb 0dbd bc95 ad3c f84c a9bd
000003f0: 4dcf 803d bdb4 65bc 4194 1d3d 1f06 af3d

fc3.bias f4 [100]
0.043009613 -0.048171498 -0.0689618 -0.07500469 0.02289182 -0.07135745 0.046724446 0.038842667
0.010083878 0.023611432 -0.01691642 0.03976691 0.04294987 0.010536173 0.09405695 -0.06180421
0.053947307 -0.02706854 -0.051842548 0.049715053 0.08604545 0.075850286 -0.017362326 0.03427488
0.041148145 0.045566555 0.017876053 0.08575972 -0.04126753 -0.06765484 0.08240774 -0.021597039
0.013676148 -0.03216907 0.056475792 0.009128289 0.082569875 0.05807763 -0.05760744 0.037590813
-0.015339474 0.06414789 -0.07410851 -0.061331518 0.0039794096 0.0987785 -0.069360994 0.08187482
0.021718595 0.015860679 -0.019303076 0.10254883 -0.0042513227 -0.06581178 -0.085826784 -0.07380368
0.04461462 0.068309315 0.056975268 -0.016146312 0.05456627 0.08240055 0.071612455 -0.055851713
0.08674698 0.050890263 0.09314829 0.024301471 0.06802794 0.09459177 -0.07162334 0.015901795
-0.02348288 -0.052632317 -0.034630336 -0.046271503 0.0368461 -0.0832623 -0.047338966 0.07702106
-0.08320193 0.085339285 0.044792313 0.07468383 -0.034493167 0.037909232 0.090257674 -0.007737601
0.07484844 0.0019727065 -0.06402084 0.05320413 -0.0711278 0.0068814713 0.067369215 0.02148663
-0.060261305 -0.037031744 0.020605069 0.0068222475
00000000: d92a 303d 7a4f 45bd d83b 8dbd 0f9c 99bd
00000010: a087 bb3c db23 92bd 2262 3f3d 7d19 1f3d
00000020: da36 253c c36c c13c 4e94 8abc a1e2 223d
00000030: 34ec 2f3d ea9f 2c3c eea0 c03d 6926 7dbd
00000040: daf7 5c3d d8be ddbc da58 54bd 03a2 4b3d
00000050: 9938 b03d 6557 9b3d 703b 8ebc d163 0c3d
00000060: f58a 283d ffa3 3a3d cd70 923c cba2 af3d
00000070: 2408 29bd 9f8e 8abd 64c5 a83d 46ec b0bc
00000080: ec11 603c b7c3 03bd 2953 673d d28e 153c
00000090: 651a a93d cfe2 6d3d c7f5 6bbd d3f8 193d
000000a0: 6b52 7bbc f85f 833d 34c6 97bd c236 7bbd
000000b0: b565 823b 624c ca3d 230d 8ebd fcad a73d
000000c0: 32eb b13c 41ee 813c 7c21 9ebc 1f05 d23d
000000d0: ae4e 8bbb 54c8 86bd f4c5 afbd 6226 97bd
000000e0: d2bd 363d c1e5 8b3d e65e 693d 4545 84bc
000000f0: e280 5f3d 9fc1 a83d 8da9 923d c4c4 64bd
00000100: 67a8 b13d 4f72 503d 88c4 be3d e113 c73c
00000110: 3c52 8b3d 54b9 c13d 42af 92bd 7b44 823c
00000120: 2b5f c0bc fc94 57bd 8ad8 0dbd 3087 3dbd
00000130: f0eb 163d 6d85 aabd 81e6 41bd 38bd 9d3d
00000140: c665 aabd 5dc6 ae3d 2578 373d d6f3 983d
00000150: b548 0dbd b646 1b3d 04d9 b83d b48b fdbb
00000160: 244a 993d 8648 013b 5c1d 83bd 93ec 593d
00000170: 74ab 91bd f77d e13b dff8 893d bb04 b03c
00000180: 8fd4 76bd 99ae 17bd f6cb a83c 298d df3b

fc4.weight f4 [100, 100]
0.037451863 -0.0011700153 0.06889321 -0.08527906 0.012609899 0.010632562 0.023792004 0.0564752
-0.029358733 -0.016149987 -0.050697602 0.0803625 -0.0049897074 -0.026521003 0.029983057 0.081244245
0.016476585 -0.038625337 0.036952626 -0.078230105 0.003362298 0.07467848 -0.0044611692 0.0334852
-0.08959042 -0.03064766 -0.08462655 0.052894104 0.0010331989 0.033955242 0.009528554 0.07210121
0.030268801 -0.0005891681 0.093671896 -0.06305096 -0.09627233 0.08354968 0.0076628686 -0.015949965
-0.05708549 -0.0037784576 -0.085314386 -0.06580675 -0.089383654 -0.099799 0.0333555 -0.06418698
-0.04143243 0.050393965 0.062574685 0.07757993 0.025071299 0.033952355 0.051206376 0.03679018
0.06576319 -0.01461066 -0.064173594 0.023033667 -0.096594684 0.040232398 -0.024734592 0.09255786
-0.02253368 -0.07257916 0.07037462 -0.032681406 0.04939605 0.03443519 0.06410559 -0.05476295
0.04107758 0.03760605 -0.017030705 -0.065648995 0.08458417 0.005173302 0.036572326 0.002110362
-0.07218128 -0.01551137 -0.087884 -0.028512705 0.005915582 -0.02941717 0.08162012 -0.089871086
-0.07150946 -0.03140036 -0.08285376 -0.07472229 0.0018058539 -0.037376117 -0.062310793 0.09761703
-0.06338767 0.04612899 -0.038906623 0.08598 -0.092918575 0.08778941 0.09401325 0.0035021962
0.059379376 -0.07379534 -0.008715086 -0.05414319 0.056723393 -0.10512284 0.029044176 -0.07975722
0.0134589225 -0.10627428 0.07651384 -0.049645007 -0.06780231 0.003981445 -0.06309578 0.033371642
-0.02099374 -0.10182744 -0.0414457 0.031091351 -0.0058534993 -0.057938986 0.032229774 -0.07152951
-0.047412474 -0.058894835 -0.0043952144 -0.047430027 -0.0020305899 -0.10027458 -0.08759845 -0.03981473
0.098034084 0.09916173 0.09388619 -0.015224149 -0.06986279 0.036348812 -0.022330921 -0.005133118
-0.111310326 0.059287004 -0.06315671 -0.013677204 -0.06068299 -0.10671729 -0.05655734 0.039672416
0.04641698 0.0695384 0.016965874 -0.037110507 -0.018929899 0.053485226 -0.04846894 0.054774966
-0.048956566 0.024974898 -0.06475878 -0.07070221 0.095354274 0.06810321 -0.033867855 0.015369064
0.03551806 -0.08168122 -0.033177346 0.054894943 0.032518238 0.06755912 0.04909012 -0.088709585
-0.0047825417 -0.049449254 -0.08554148 -0.047542166 -0.06734832 0.05152281 0.035338074 -0.094792634
-0.053152163 0.017967135 0.014149895 0.04239686 -0.043727033 -0.08803274 -0.03183916 0.011715319
-0.05991032 0.016118856 0.10092123 0.080799274 -0.010011452 -0.07863466 0.08533657 0.010041698
0.053627484 0.027556239 -0.07363279 -0.09284234 0.009544669 -0.043384302 0.057838794 0.010268686
0.01756298 -0.055007096 0.03818131 -0.039378017 -0.07760411 0.056836862 0.09306059 -0.0027299896
0.01978465 -0.05387381 -0.017214369 -0.06658182 -0.014237458 0.04909841 -0.10109611 -0.06253208
0.017638786 -0.05703442 -0.077055916 0.03006099 0.031009443 -0.03362531 -0.059975892 0.049524203
-0.09483832 -0.00041067833 0.081163146 0.061835654 0.015951205 -0.08753614 0.05940618 -0.06500781
-0.013404774 -0.059496984 0.06460545 -0.08255199 0.08464716 0.08926911 -0.06247421 -0.042800874
0.09338347 0.03945301 0.054083675 0.0041216416 -0.052178 0.055194058 0.07695664 -0.073575675
00000000: 2067 193d 335b 99ba e217 8d3d caa6 aebd
00000010: c099 4e3c 3334 2e3c 73e7 c23c 8a52 673d
00000020: ba81 f0bc fa4c 84bc 4aa8 4fbd 1895 a43d
00000030: b380 a3bb 9342 d9bc 079f f53c 6263 a63d
00000040: e7f9 863c 9a35 1ebd a35b 173d 1b37 a0bd
00000050: 005a 5c3b 08f1 983d 002f 92bb c727 093d
00000060: 2f7b b7bd cd10 fbbc af50 adbd 7da7 583d
00000070: 676c 873a a714 0b3d a71d 1c3c cda9 933d
00000080: 47f6 f73c 6772 1aba 0dd7 bf3d dd20 81bd
00000090: 6d2a c5bd 181c ab3d cd18 fb3b 80a9 82bc
000000a0: 7ad2 69bd 00a0 77bb 4fb9 aebd b0c5 86bd
000000b0: c70e b7bd 6b63 ccbd c79f 083d 7774 83bd
000000c0: 0db5 29bd e769 4e3d 2827 803d 3ae2 9e3d
000000d0: 5362 cd3c a011 0b3d c7bd 513d 4db1 163d
000000e0: daae 863d 8d61 6fbc 726d 83bd 1ab1 bc3c
000000f0: 6fd3 c5bd baca 243d 33a0 cabc fa8e bd3d
00000100: 8d98 b8bc 62a4 94bd 9220 903d f0dc 05bd
00000110: 8353 4a3d ea0b 0d3d cb49 833d 1d4f 60bd
00000120: f740 283d cd08 1a3d fa83 8bbc fb72 86bd
00000130: 773a ad3d cd84 a93b ddcc 153d 004e 0a3b
00000140: c7d3 93bd 6723 7ebc 87fc b3bd 7a93 e9bc
00000150: 80d7 c13b 47fc f0bc 7328 a73d 550e b8bd
00000160: 8d73 92bd aa9d 00bd 3baf a9bd 0008 99bd
00000170: 67b2 ec3a b317 19bd 9a39 7fbd 70eb c73d
00000180: 65d1 81bd c0f1 3c3d 8d5c 1fbd 4816 b03d
00000190: 184c bebd efca b33d 058a c03d 1a85 653b
000001a0: ca37 733d 0322 97bd b8c9 0ebc 40c5 5dbd
000001b0: ca56 683d a54a d7bd 0dee ed3c c157 a3bd
000001c0: d082 5c3c 54a6 d9bd 4ab3 9c3d 9058 4bbd
000001d0: f0db 8abd c876 823b 5c38 81bd b4b0 083d
000001e0: 10fb abbc e88a d0bd f7c2 29bd 4ab3 fe3c
000001f0: b6ce bfbb 6e51 6dbd 5e03 043d 107e 92bd
00000200: 9533 42bd b63b 71bd bb05 90bb fd45 42bd
00000210: a513 05bb c25c cdbd d166 b3bd c514 23bd
00000220: 18c6 c83d 4e15 cb3d 6747 c03d b66e 79bc
00000230: 3914 8fbd 7ee2 143d 56ef b6bc b733 a8bb
00000240: abf6 e3bd eed6 723d 4e58 81bd 5a16 60bc
00000250: ba8e 78bd 988e dabd aba8 67bd 8b7f 223d
00000260: bb1f 3e3d 266a 8e3d 04fc 8a3c 3001 18bd
00000270: e012 9bbc 5313 5b3d 5e87 46bd b75b 603d
00000280: ae86 48bd 2898 cc3c 40a0 84bd 52cc 90bd
00000290: 1a49 c33d b279 8b3d 05b9 0abd 87ce 7b3c
000002a0: 637b 113d 7c48 a7bd f8e4 07bd 85d9 603d
000002b0: d831 053d 705c 8a3d b912 493d 5fad b5bd
000002c0: deb6 9cbb 4d8b 4abd 5f30 afbd 93bb 42bd
000002d0: eaed 89bd 9509 533d a8be 103d a422 c2bd
000002e0: 15b6 59bd d02f 933c f6d4 673c 54a8 2d3d
000002f0: 1e1b 33bd 824a b4bd c769 02bd 9cf1 3f3c
00000300: 8664 75bd b10b 843c caaf ce3d 177a a53d
00000310: 1307 24bc 350b a1bd f1c4 ae3d ef85 243c
00000320: 7ea8 5b3d 9fbd e13c cacc 96bd 2024 bebd
00000330: 3e61 1c3c bdb3 31bd 5fe8 6c3d fe3d 283c
00000340: 3de0 8f3c 1f4f 61bd 0164 1c3d d84a 21bd
00000350: e7ee 9ebd c5cd 683d 8d96 be3d a0e9 32bb
00000360: 6b13 a23c c9aa 5cbd 2605 8dbc 0d5c 88bd
00000370: 3a44 69bc 6a1b 493d 7a0b cfbd d210 80bd
00000380: 377f 903c ed9c 69bd 7ecf 9dbd 7742 f63c
00000390: 8407 fe3c b1ba 09bd 48a9 75bd e4d9 4a3d
000003a0: 983a c2bd 5050 d7b9 dd38 a63d 6247 7d3d
000003b0: 1aac 823c 2646 b3bd e553 733d d122 85bd
000003c0: b29f 5bbc 1cb3 73bd dd4f 843d 0511 a9bd
000003d0: 7d5b ad3d b9d2 b63d f5e4 7fbd f84f 2fbd
000003e0: d53f bf3d 7b99 213d d886 5d3d d60e 873b
000003f0: 99b8 55bd 2a13 623d 719b 9d3d d8ae 96bd

fc4.bias f4 [100]
-0.029890943 0.03451483 -0.007632441 0.087187774 0.05679778 -0.0041898536 0.09013144 -0.072580956
-0.045026634 -0.036363006 -0.06838736 0.06827953 0.03705324 -0.070415474 -0.006894767 -0.08189713
-0.074642874 -0.072808065 0.05229824 0.0675128 -0.02494886 0.018485606 0.053170647 -0.06513476
0.06290585 -0.09431003 0.07880757 0.09011902 0.004409143 0.04157136 0.06737022 -0.09635305
0.08436955 -0.09585886 -0.088306665 -0.08690125 0.026165836 0.09213927 0.05775205 0.04754225
0.07897823 0.050819676 -0.008005811 0.00387986 0.07158475 0.03702624 0.064738005 0.041041132
-0.04597897 0.012645421 0.05374806 -0.048987262 -0.028717676 0.08072766 -0.08966172 0.04436816
-0.095457725 -0.077717684 0.00490275 0.021735663 -0.044104896 -0.015973931 -0.038877863 -0.053350188
0.076323405 0.0027252708 0.001337266 -0.0903248 -0.07223628 -0.073281385 -0.030671572 0.048827924
-0.07478227 -0.07428103 0.009088524 -0.08488031 -0.014545595 0.049140535 0.05480596 -0.005518758
0.032821894 0.028909164 0.035259724 0.05874449 0.00921255 -0.02824996 -0.053770404 0.059634127
-8.44187e-05 -0.011834574 -0.006777683 0.08586695 0.053028848 0.040021554 0.05656066 -0.0044537783
-0.0161196 0.09063007 0.049394354 0.016511906
00000000: dadd f4bc 6c5f 0d3d 8e19 fabb 818f b23d
00000010: caa4 683d 0a4b 89bb d596 b83d 53a5 94bd
00000020: d96d 38bd 60f1 14bd ac0e 8cbd 23d6 8b3d
00000030: 23c5 173d fd35 90bd 7fed e1bb afb9 a7bd
00000040: 5dde 98bd 651c 95bd ae36 563d 2744 8a3d
00000050: 8d61 ccbc 206f 973c 77c9 593d 6065 85bd
00000060: c8d4 803d 9e25 c1bd dd65 a13d 5290 b83d
00000070: 927a 903b bb46 2a3d 66f9 893d bf54 c5bd
00000080: f1c9 ac3d a651 c4bd 20da b4bd 48f9 b1bd
00000090: bc59 d63c 83b3 bc3d 6a8d 6c3d aabb 423d
000000a0: 57bf a13d 4b28 503d ce2a 03bc 4045 7e3b
000000b0: 079b 923d d4a8 173d 5c95 843d bf1a 283d
000000c0: 7254 3cbd bd2e 4f3c ed26 5c3d dea6 48bd
000000d0: 5541 ebbc 8b54 a53d 90a0 b7bd 63bb 353d
000000e0: 577f c3bd 732a 9fbd 3fa7 a03b fd0e b23c
000000f0: 56a7 34bd c3db 82bc 653e 1fbd ba85 5abd
00000100: 724f 9c3d 759a 323b 3347 af3a 35fc b8bd
00000110: 9df0 93bd 8d14 96bd f342 fbbc caff 473d
00000120: 7227 99bd a720 98bd 08e8 143c bad5 adbd
00000130: a650 6ebc 9647 493d 377c 603d b3d6 b4bb
00000140: 4070 063d e9d2 ec3c 806c 103d 109e 703d
00000150: 3cf0 163c 766c e7bc 5b3e 5cbd ea42 743d
00000160: f209 b1b8 cde5 41bc 5317 debb 03db af3d
00000170: c734 593d a4ed 233d 27ac 673d 00f1 91bb
00000180: 400d 84bc 429c b93d bc51 4a3d fa43 873c
