model.pt (torch, 260215 bytes, 8 tensors)

fc1.weight f4 [128, 193]
0.015419262 -0.034664657 -0.017819079 -0.111518085 -0.0040712035 -0.13714857 -0.067761205 -0.13770588
-0.07299867 -0.090098836 -0.004840564 -0.13384026 -0.06959796 0.102789946 0.103365615 -0.093586504
0.022429401 0.11840749 -0.06385581 -0.11264302 -0.07619243 -0.094735004 -0.053337913 0.024364632
-0.00041648978 -0.036416966 -0.088359624 -0.15296243 -0.038107794 -0.032564055 -0.07635383 -0.12194737
0.017904202 -0.09105675 -0.09894646 -0.013434372 -0.05624043 -0.07255672 -0.09956281 0.01618667
0.0525679 -0.029621784 -0.08956079 -0.14139654 -0.11929262 -0.1360514 -0.11461882 -0.09140613
-0.054608416 -0.07563585 -0.03137813 0.16468832 -0.05295181 0.04083938 -0.18680446 -0.078503944
-0.0103993295 -0.013718053 -0.09185439 -0.16951829 -0.03923293 0.09697287 0.07590581 0.09742252
-0.013900322 -0.010395329 0.1341885 0.07792392 0.06782659 0.03887447 0.111746214 0.07402036
0.121360496 0.06728676 0.05468819 -0.092771746 0.050504636 0.044179216 -0.019199254 -0.04646003
-0.08504963 0.08086508 0.040798202 0.033371996 -0.0745352 -0.03906899 0.032732584 -0.024811747
0.07047949 0.071265884 -0.044632796 0.050673902 -0.0010509419 -0.095350675 0.02139434 -0.006062772
0.049068615 -0.0236372 -0.029711781 -0.009036375 0.04872061 -0.032172848 -0.02663279 0.08019082
-0.007983951 0.020074237 -0.04817913 0.06798051 0.031486068 0.06348323 0.054283388 0.083047174
0.04624538 -0.018827274 0.039175753 -0.010929992 -0.02697194 -0.0143639585 0.00916175 -0.012020464
-0.101782486 -0.05211625 -0.10706673 -0.004789902 -0.023186032 -0.029734317 0.04254954 0.018135702
0.015395591 -0.08569705 -0.016451063 0.0077193393 0.03978162 0.008524169 -0.017679282 -0.05544889
-0.12553194 -0.086265095 -0.088511884 -0.0984397 -0.08831693 -0.07627049 -0.086735934 0.0138774505
0.0047986265 -0.06309998 -0.049214307 0.023163682 -0.0020957307 -0.06549038 -0.0053891772 0.0284404
0.017426312 -0.033048797 -0.063694686 -0.06928095 -0.106843986 0.022441084 -0.08234427 -0.095591746
-0.010649809 -0.08786123 -0.12926978 -0.09369852 0.0023713287 -0.11304136 -0.022468183 -0.11980573
-0.12206973 0.005109305 -0.09605565 -0.008649929 0.013904159 0.018240526 -0.020310348 -0.026994519
0.014775322 -0.006834132 -0.044028744 -0.03518019 -0.049332637 0.039252035 0.095936045 -0.10747603
0.04223257 -0.08855376 -0.014346453 0.06614947 0.020839527 -0.0730554 0.02864295 -0.012534232
-0.07065275 0.045514915 0.14272855 -0.071693674 0.098056614 0.055738755 -0.05904568 0.022688542
0.11858725 0.033486307 0.1351653 0.18117404 0.068589866 -0.06342763 0.13013186 0.11047249
-0.025782635 0.086189136 0.19916695 0.0803321 0.110453054 0.1600209 -0.052282907 -0.04250625
0.14117886 0.06283093 0.0058586984 0.09858662 -0.05249882 0.048349675 -0.033147912 0.012481865
-0.02320475 0.12951331 0.08961865 0.058265157 0.10733857 0.0052493494 0.0831583 0.09730828
0.07290099 -0.1113193 -0.035112295 -0.038413275 -0.023717113 -0.012805733 0.028426379 0.0466125
0.06949239 -0.01549089 -0.08864039 -0.061167452 0.0051362105 -0.084809065 -0.061326556 0.033816576
-0.015626725 -0.0014363913 0.043196198 0.084653504 0.017430274 0.012743341 -0.021232156 -0.02226318
00000000: 13a1 7c3c 87fc 0dbd 51f9 91bc 9863 e4bd
00000010: bb67 85bb ad70 0cbe 63c6 8abd c502 0dbe
00000020: 5480 95bd bd85 b8bd 989d 9ebb 6c0d 09be
00000030: 6089 8ebd 8983 d23d 5ab1 d33d 48aa bfbd
00000040: ddbd b73c a07f f23d d6c6 82bd 62b1 e6bd
00000050: c70a 9cbd 6d04 c2bd db78 5abd 5698 c73c
00000060: 505c dab9 f529 15bd e4f5 b4bd 2fa2 1cbe
00000070: eb16 1cbd e361 05bd 665f 9cbd 8bbf f9bd
00000080: d5ab 923c f67b babd 71a4 cabd d71b 5cbc
00000090: 5d5c 66bd 9e98 94bd 96e7 cbbd e899 843c
000000a0: 7051 573d 62a9 f2bc a66b b7bd 41ca 10be
000000b0: b04f f4bd 0f51 0bbe 46bd eabd 2333 bbbd
000000c0: 13ad 5fbd f8e6 9abd 5b86 00bd 0ea4 283e
000000d0: ffe3 58bd 3247 273d ab49 3fbe adc6 a0bd
000000e0: f361 2abc afc1 60bc 281e bcbd 3496 2dbe
000000f0: b5b2 20bd b699 c63d 8174 9b3d 7585 c73d
00000100: 2dbe 63bc 2c51 2abc b668 093e 9396 9f3d
00000110: abe8 8a3d d63a 1f3d 33db e43d fd97 973d
00000120: da8b f83d a4cd 893d b900 603d 1dff bdbd
00000130: f3dd 4e3d 44f5 343d c147 9dbc df4c 3ebd
00000140: 802e aebd 979c a53d 041c 273d 13b1 083d
00000150: e9a5 98bd ce06 20bd 9a12 063d 0142 cbbc
00000160: 8d57 903d d9f3 913d e1d0 36bd 708f 4f3d
00000170: c2bf 89ba 3747 c3bd 2f43 af3c 38aa c6bb
00000180: 2cfc 483d cda2 c1bc 1f66 f3bc 4e0d 14bc
00000190: 438f 473d adc7 03bd 022d dabc 163b a43d
000001a0: 1ecf 02bc ba72 a43c 7b57 45bd 5e39 8b3d
000001b0: 89f7 003d 7f03 823d 4258 5e3d a314 aa3d
000001c0: cc6b 3d3d a83b 9abc c176 203d b613 33bc
000001d0: 42f4 dcbc cf56 6bbc 2a1b 163c 7bf1 44bc
000001e0: 5673 d0bd d977 55bd cd45 dbbd 9cf4 9cbb
000001f0: a2f0 bdbc 6295 f3bc 6d48 2e3d 5391 943c
00000200: ca3d 7c3c ef81 afbd 61c4 86bc 83f2 fc3b
00000210: 0df2 223d f5a8 0b3c 24d4 90bc 601e 63bd
00000220: 728b 00be c1ab b0bd b845 b5bd c19a c9bd
00000230: 82df b4bd b433 9cbd 9ca2 b1bd 3f5e 633c
00000240: cc3d 9d3b 903a 81bd f194 49bd c3c1 bd3c
00000250: 8758 09bb d21f 86bd b297 b0bb d7fb e83c
00000260: a0c1 8e3c 2d5e 07bd 5c72 82bd 2ce3 8dbd
00000270: 05d1 dabd 5dd6 b73c 1da4 a8bd 9bc5 c3bd
00000280: 897c 2ebc 97f0 b3bd 4c5f 04be 02e5 bfbd
00000290: 4b68 1b3b 3b82 e7bd 320f b8bc b55c f5bd
000002a0: b2ff f9bd f56b a73b d3b8 c4bd 6fb8 0dbc
000002b0: 45ce 633c 286d 953c e361 a6bc 9c23 ddbc
000002c0: 3114 723c dbf0 dfbb 7c57 34bd 1a19 10bd
000002d0: 0511 4abd bec6 203d 1e7a c43d 651c dcbd
000002e0: 0ffc 2c3d ac5b b5bd 630d 6bbc 6079 873d
000002f0: a8b7 aa3c 129e 95bd 9fa4 ea3c 615c 4dbc
00000300: 64b2 90bd d96d 3a3d 6f27 123e 22d4 92bd
00000310: e8d1 c83d 524e 643d e2d9 71bd 52dd b93c
00000320: dfdd f23d f028 093d c668 0a3e b085 393e
00000330: d878 8c3d 58e6 81bd 4941 053e 673f e23d
00000340: 1b36 d3bc ee83 b03d 6cf2 4b3e 2885 a43d
00000350: 3635 e23d 85dc 233e 9a26 56bd 091b 2ebd
00000360: 3191 103e 81ad 803d 53fa bf3b c8e7 c93d
00000370: 0109 57bd 4f0a 463d 1bc6 07bd bc80 4c3c
00000380: e317 bebc 239f 043e fc89 b73d 72a7 6e3d
00000390: 53d4 db3d bc02 ac3b e64e aa3d 9049 c73d
000003a0: 1d4d 953d 60fb e3bd e9d1 0fbd 3d57 1dbd
000003b0: 644a c2bc 23cf 51bc 70de e83c c0ec 3e3d
000003c0: 0752 8e3d 80cd 7dbc 1889 b5bd b98a 7abd
000003d0: a84d a83b 60b0 adbd 8e31 7bbd 4083 0a3d
000003e0: 9e03 80bc 4b45 bcba 7fee 303d d15e ad3d
000003f0: efc9 8e3c 72c9 503c 0fef adbc 4661 b6bc

fc1.bias f4 [128]
0.105049655 0.1397893 0.12472999 0.04388819 0.097128116 0.11495279 0.028986374 0.13856024
0.04929643 0.08836056 0.069818035 0.03832545 0.05353177 0.052532945 0.017003154 0.13794424
0.08847049 0.044227317 0.035903938 0.06266376 0.053689305 0.109611586 0.085142806 0.10581623
0.09655504 0.047125243 0.04873995 0.047749426 0.02250412 0.052413143 0.04487838 0.10689708
0.09821022 0.009994726 0.110961564 0.029980121 0.12112724 0.13065015 0.12372928 0.15086894
0.103136145 0.09734858 0.07903622 -0.0122425435 0.024323925 0.02926062 0.004491361 0.025764024
0.11718512 0.031539746 -0.0058938744 0.043914154 0.009022552 0.103344075 0.015559636 0.05364404
0.0045967237 0.0023934639 0.06088967 0.11376012 0.016133089 -0.0020925256 0.10659116 0.09739966
0.057766464 0.015655702 0.08900757 0.15832625 0.10699514 0.065409005 0.1020496 0.06690454
0.11277114 0.037553664 0.06641413 0.02417644 0.14344236 0.14165382 0.1538311 0.05691393
0.09751811 0.1344809 0.13029209 0.12694798 0.041192576 0.11560626 0.12526879 0.1347214
0.02684068 0.04218961 -0.005451346 0.11812836 0.10917551 0.043289173 0.11758981 0.08615707
0.0081952335 0.09344021 0.1626445 0.00359942 0.13946837 0.053013567 0.08304402 0.011950654
0.1225647 0.15241021 0.050664857 0.02386987 0.108361006 0.073756896 0.09283676 0.053510174
0.029967878 0.061074596 0.098062836 0.14338869 0.072216086 0.019623477 0.04015263 0.09622697
0.12053761 0.05298672 0.0010415968 0.03086208 0.03668989 0.02570054 0.0932617 0.043814186
00000000: 4624 d73d ed24 0f3e 7072 ff3d 1ac4 333d
00000010: 1beb c63d 5e6c eb3d d574 ed3c bce2 0d3e
00000020: 0eeb 493d 62f6 b43d c2fc 8e3d 26fb 1c3d
00000030: 2144 5b3d c92c 573d 334a 8b3c 4141 0d3e
00000040: 0430 b53d b427 353d 0210 133d db55 803d
00000050: 51e9 5b3d 0a7c e03d 5a5f ae3d 2eb6 d83d
00000060: a6be c53d 6606 413d 8ba3 473d e794 433d
00000070: 8f5a b83c 2aaf 563d 64d2 373d dbec da3d
00000080: 7122 c93d ebc0 233c d13f e33d df98 f53c
00000090: 8f11 f83d 27c9 053e c765 fd3d 637d 1a3e
000000a0: 0b39 d33d b15e c73d bedd a13d f394 48bc
000000b0: f842 c73c f8b3 ef3c 442c 933b 130f d33c
000000c0: c1fe ef3d d22f 013d 6721 c1bb 54df 333d
000000d0: 53d3 133c 0fa6 d33d d8ed 7e3c dab9 5b3d
000000e0: 1da0 963b a9db 1c3b 7267 793d 11fb e83d
000000f0: 8a29 843c c122 09bb 774c da3d 7979 c73d
00000100: 879c 6c3d 6340 803c 9a49 b63d 4720 223e
00000110: 4520 db3d 28f5 853d 61ff d03d 3f05 893d
00000120: 8ef4 e63d dfd1 193d 2204 883d ab0d c63c
00000130: 8ee2 123e b30d 113e e685 1d3e 951e 693d
00000140: 93b7 c73d 5cb5 093e 4a6b 053e a7fe 013e
00000150: 8cb9 283d fac2 ec3d 7646 003e 68f4 093e
00000160: fce0 db3c 03cf 2c3d 34a1 b2bb 48ed f13d
00000170: 6997 df3d fd4f 313d edd2 f03d 1e73 b03d
00000180: 4d45 063c 955d bf3d 488c 263e 3fe4 6b3b
00000190: ccd0 0e3e c124 593d fc12 aa3d adcc 433c
000001a0: 3403 fb3d 6c11 1c3e f485 4f3d bf8a c33c
000001b0: 60ec dd3d db0d 973d 3321 be3d 7c2d 5b3d
000001c0: 327f f53c 5b29 7a3d 2bd5 c83d 7cd4 123e
000001d0: 07e6 933d 6ac1 a03c 1677 243d a512 c53d
000001e0: 6cdc f63d 9a08 593d 3086 883a 79d2 fc3c
000001f0: 2348 163d f089 d23c fdff be3d 8176 333d

fc2.weight f4 [128, 128]
0.041842263 0.10838114 -0.06886725 0.0646328 0.06673007 -0.03967024 0.13365142 -0.05148443
-0.06808684 0.002682808 0.11539393 0.14313298 -0.017396571 -0.08326456 0.11276324 0.10296818
0.057628274 0.061041538 0.14095007 0.02556007 0.027798064 -0.041176274 0.014172352 0.14460167
0.03664369 -0.004123091 0.0126781715 0.037853844 0.056654807 0.07245092 0.048138224 0.077685386
0.08693505 -0.03428251 -0.119901024 -0.0790792 -0.07936209 0.17488244 0.09898971 0.12200238
0.13222943 0.028518276 0.0523057 0.11854057 0.13899499 0.10489517 0.047841545 -0.038491666
0.085714564 -0.07180646 0.06482567 -0.10126773 -0.095080905 0.08577705 -0.10044432 -0.09878268
0.0651805 -0.012094495 0.02520129 0.093051754 0.0114791775 -0.015500455 0.05241776 0.040339224
0.12010449 0.07627389 -0.16909121 -0.033767816 0.021177847 0.08988754 -0.053508572 0.09535588
0.111236475 -0.086472765 -0.010486163 0.060634907 -0.015135631 -0.05261423 0.08877369 0.08022474
-0.06665732 0.119802415 0.13942601 0.12749556 0.05377221 -0.0038370318 0.09805935 -0.12678464
0.011513383 0.108534165 -0.09511318 0.130335 -0.07912648 0.10862774 -0.04110026 -0.064210944
-0.009618573 -0.025444804 0.044500403 0.07817967 0.008731214 0.13355066 -0.015735857 0.09006727
0.16073576 -0.16968793 -0.09934728 0.09622048 -0.045398083 0.036284983 -0.015423132 0.09792807
0.061945904 -0.039829306 -0.08474946 0.0072775665 0.04595302 0.00045140478 0.021596164 -0.017103275
-0.05862548 -0.0068930993 -0.03791883 -0.024781784 0.0233763 0.050642602 0.15000746 -0.018984722
-0.035692073 0.04504008 0.096704684 0.08706799 0.094177015 0.0039975517 0.045828007 0.042919256
0.02487793 0.121445775 0.0046674507 -0.066712625 0.0963155 0.096621744 0.034176737 0.07311438
-0.08298835 0.059820246 0.07449031 -0.16378589 -0.12119883 0.107457355 -0.05419447 -0.018849406
-0.13072258 0.024622958 0.06383787 0.11817845 -0.0009753461 -0.09644776 0.13610655 0.03071398
0.0035494932 0.11289171 0.08333613 0.114182584 0.08844578 0.16041388 -0.10917026 -0.11061659
0.104949035 -0.024367834 0.13732 0.13574277 0.111173324 0.033261847 0.13480334 0.15194938
0.12609214 -0.07243976 0.015329093 0.08206193 -0.091933 0.15891987 0.012121 0.1177335
0.03965646 0.0076522706 0.16362014 0.15479068 0.159193 0.09195991 0.032172717 0.044159777
0.010648339 0.14778155 0.017250663 0.11474089 -0.023346273 -0.10515538 -0.009208018 0.14882518
-0.02980257 0.1099988 0.11124704 0.028935162 0.026689293 0.07598521 0.1077237 0.08963772
-0.009888866 0.12250016 0.06733175 -0.02822398 0.054756645 -0.07438168 0.039712936 0.08749505
0.09895324 0.055338368 0.09063724 0.045281984 0.03588882 0.010161369 0.0062735653 0.060363702
0.0294706 0.006965629 0.09871316 0.09710362 0.13045177 -0.010894637 -0.026475683 0.030528277
0.034319945 0.12931429 -0.031817988 -0.036754105 0.050048772 -0.09014597 -0.016864704 0.029192394
-0.045601267 0.14863972 0.078722216 0.06012215 -0.10501537 0.14770994 0.1268161 0.06588782
-0.01897667 -0.0005984278 0.14359684 -0.065151766 -0.026810113 -0.112888046 -0.0057985457 0.17908724
00000000: cb62 2b3d eef6 dd3d 460a 8dbd 345e 843d
00000010: c6a9 883d 437d 22bd ebdb 083e 56e1 52bd
00000020: 1d71 8bbd 0dd2 2f3b a753 ec3d 7491 123e
00000030: 4183 8ebc 9c86 aabd 6af0 e63d fbe0 d23d
00000040: a00b 6c3d b106 7a3d 3755 103e 5a63 d13c
00000050: c4b8 e33c 74a8 28bd 2733 683c 7612 143e
00000060: b217 163d ff1a 87bb 1bb8 4f3c a20c 1b3d
00000070: df0e 683d 2661 943d 962c 453d 8419 9f3d
00000080: 010b b23d d16b 0cbd ab8e f5bd 47f4 a1bd
00000090: 9788 a2bd 6214 333e 1ebb ca3d 62dc f93d
000000a0: 2767 073e 299f e93c 803e 563d 66c5 f23d
000000b0: b454 0e3e 47d3 d63d 7ff5 433d 70a9 1dbd
000000c0: 1e8b af3d 440f 93bd 52c3 843d 7565 cfbd
000000d0: c7b9 c2bd e1ab af3d c0b5 cdbd 934e cabd
000000e0: 5b7d 853d fd27 46bc f072 ce3c eb91 be3d
000000f0: 2913 3c3c 9ff5 7dbc 01b4 563d be3a 253d
00000100: 58f9 f53d 7c35 9c3d 3f26 2dbe 1f50 0abd
00000110: 2a7d ad3c f516 b83d ce2b 5bbd f249 c33d
00000120: f3cf e33d a218 b1bd 28ce 2bbc 4f5c 783d
00000130: 70fb 77bc 0582 57bd fbce b53d de4c a43d
00000140: a283 88bd f85a f53d b1c5 0e3e 328e 023e
00000150: 4040 5c3d b676 7bbb 57d3 c83d d5d3 01be
00000160: a1a2 3c3c 2947 de3d b3ca c2bd 8a76 053e
00000170: 100d a2bd 3878 de3d bf58 28bd 0781 83bd
00000180: 3897 1dbc 9f71 d0bc 0e46 363d aa1c a03d
00000190: 5e0d 0f3c 81c1 083e 7ce8 80bc 3075 b83d
000001a0: ea97 243e acc2 2dbe 9676 cbbd 3e0f c53d
000001b0: 57f3 39bd 909f 143d 4eb1 7cbc 838e c83d
000001c0: fdba 7d3d 0e24 23bd 2091 adbd a778 ee3b
000001d0: 3c39 3c3d 86aa ec39 70ea b03c 2b1c 8cbc
000001e0: 4521 70bd 82df e1bb c650 1bbd 2b03 cbbc
000001f0: a87f bf3c 9e6e 4f3d 8e9b 193e d985 9bbc
00000200: da31 12bd f27b 383d 1b0d c63d b450 b23d
00000210: e1df c03d e5fd 823b 26b6 3b3d 1acc 2f3d
00000220: cdcc cb3c 90b8 f83d 6af1 983b a1a0 88bd
00000230: 1041 c53d 9fe1 c53d e8fc 0b3d febc 953d
00000240: ccf5 a9bd 1306 753d 608e 983d 7db7 27be
00000250: 1837 f8bd 9a12 dc3d 05fb 5dbd 126a 9abc
00000260: 24dc 05be 16b6 c93c 6ebd 823d 8b07 f23d
00000270: 5eae 7fba 6786 c5bd 845f 0b3e e29b fb3c
00000280: 9d9e 683b c533 e73d 22ac aa3d 8fd8 e93d
00000290: 1023 b53d 8943 243e a894 dfbd f38a e2bd
000002a0: 85ef d63d 0d9f c7bc 9d9d 0c3e 2700 0b3e
000002b0: d7ae e33d 933d 083d e309 0a3e 9e98 1b3e
000002c0: 4c1e 013e 4c5b 94bd e026 7b3c 1610 a83d
000002d0: 5e47 bcbd e4bb 223e 2997 463c 431e f13d
000002e0: d06e 223d e6bf fa3b 0a8c 273e 7381 1e3e
000002f0: 7d03 233e 7a55 bc3d 8ac7 033d e2e0 343d
00000300: 5f76 2e3c 0c54 173e 4351 8d3c 46fd ea3d
00000310: af40 bfbc b45b d7bd 3add 16bc a165 183e
00000320: 8524 f4bc 0d47 e13d 7dd5 e33d 6f09 ed3c
00000330: 81a3 da3c 229e 9b3d 3e9e dc3d fb93 b73d
00000340: e904 22bc 5de1 fa3d 3be5 893d fa35 e7bc
00000350: 8148 603d 6c55 98bd 08aa 223d 9b30 b33d
00000360: ffa7 ca3d 7caa 623d 04a0 b93d 9a79 393d
00000370: 2800 133d df7b 263c 7b92 cd3b ee3f 773d
00000380: 546c f13c ee3f e43b 202a ca3d 43de c63d
00000390: 2695 053e 6b7f 32bc 88e3 d8bc 7016 fa3c
000003a0: 1293 0c3d f76a 043e 9453 02bd 798b 16bd
000003b0: f1ff 4c3d 739e b8bd d927 8abc e324 ef3c
000003c0: 65c8 3abd 0335 183e 1d39 a13d a542 763d
000003d0: 4c12 d7bd 4641 173e 14dc 013e 32f0 863d
000003e0: f674 9bbc cfdf 1cba 0d0b 133e 4a6e 85bd
000003f0: e2a0 dbbc d931 e7bd ba01 bebb a562 373e

fc2.bias f4 [128]
0.018189058 0.09615636 0.13346317 0.08433174 -0.038507238 0.004379936 0.13794024 0.0818326
0.0006378409 0.040261813 -0.04843791 -0.042295635 0.018994918 0.09746191 0.034834277 0.13377768
0.06990694 0.057741378 0.1359614 -0.025040278 0.07940617 0.028039435 0.118872404 0.12806687
0.020677676 -0.056450445 0.13322061 0.0894579 -0.041118383 0.0786923 -0.03584344 0.099235065
0.03778596 0.09801655 0.026304044 0.011749693 0.103637 0.13626322 -0.025298748 0.04929373
0.06899944 0.11923985 0.088470444 0.009972707 0.07826026 0.069908336 0.11193154 0.092357464
0.09833441 0.060760688 0.0013761694 0.08081781 0.027058382 -0.018741809 -0.030678427 0.11180298
0.10902561 0.05764326 0.10472053 0.012632241 0.11334803 -0.035744023 -0.014501104 0.04853274
0.069559254 -0.024619702 0.008958468 -0.030435132 0.022699768 -0.0040923627 0.16087766 0.102179244
0.010404593 0.063337624 0.0676713 -0.041974768 0.114302725 0.016244786 -0.0072675426 0.034262367
0.090411976 -0.009424792 0.035598315 0.026541403 0.11808962 -0.030686866 0.04797869 0.09226122
0.10410931 0.11891007 0.08869682 -0.008202888 0.014267734 0.03969653 0.0417052 0.06326102
0.040193666 0.058441672 0.07751771 -0.046659894 0.013638553 0.12527965 0.124963775 0.11033787
0.097183295 0.053511992 0.00850482 0.007658737 0.004833372 0.025229448 0.008918942 0.06713641
0.040306326 -0.0014405428 0.01608923 0.054925207 0.014104371 0.120156124 0.13221717 0.094348356
0.12169446 -0.0069074268 0.11538706 0.06898173 0.022728002 -0.0018790432 0.016079107 -0.023786271
00000000: 3801 953c a0ed c43d 92aa 083e 1fb6 ac3d
00000010: c4b9 1dbd 9185 8f3b 3540 0d3e da97 a73d
00000020: c734 273a 92e9 243d d466 46bd 303e 2dbd
00000030: 3b9b 9b3c 1c9a c73d 63ae 0e3d 04fd 083e
00000040: 5f2b 8f3d 3982 6c3d 7739 0b3e 4521 cdbc
00000050: b49f a23d f5b2 e53c 6073 f33d f623 033e
00000060: 3b64 a93c 9538 67bd fc6a 083e b435 b73d
00000070: c06b 28bd 6e29 a13d 92d0 12bd c13b cb3d
00000080: 73c5 1a3d e7bc c83d 947b d73c c981 403c
00000090: a33f d43d 9688 0b3e 523f cfbc 39e8 493d
000000a0: 944f 8d3d 0634 f43d fe2f b53d 9164 233c
000000b0: ea46 a03d 1a2c 8f3d 5d3c e53d e925 bd3d
000000c0: 8d63 c93d 33e0 783d 9560 b43a cf83 a53d
000000d0: 8aa9 dd3c 6c88 99bc 5351 fbbc f6f8 e43d
000000e0: d248 df3d 571b 6c3d b877 d63d 75f7 4e3c
000000f0: 0323 e83d 5368 12bd 0a96 6dbc 44ca 463d
00000100: 1575 8e3d 42af c9bc 8ac6 123c 1953 f9bc
00000110: ddf4 b93c 3a19 86bb 1dbd 243e 5a43 d13d
00000120: 0778 2a3c 28b7 813d 4097 8a3d bced 2bbd
00000130: 8c17 ea3d c913 853c 9124 eebb b256 0c3d
00000140: ea29 b93d 716a 1abc 8acf 113d 5b6d d93c
00000150: f8d8 f13d 0663 fbbc 4e85 443d 73f3 bc3d
00000160: 4337 d53d 1f87 f33d aea6 b53d 6865 06bc
00000170: 37c3 693c d498 223d 12d3 2a3d fe8e 813d
00000180: 1da2 243d 8960 6f3d 9bc1 9e3d 721e 3fbd
00000190: 3d74 5f3c 4f49 003e 02ed ff3d d2f8 e13d
000001a0: 0908 c73d 642f 5b3d cd57 0b3c 24f6 fa3b
000001b0: 4361 9e3b fdad ce3c c120 123c d07e 893d
000001c0: 3f18 253d 98d0 bcba 90cd 833c 41f9 603d
000001d0: 0516 673c 6a14 f63d f063 073e b639 c13d
000001e0: f23a f93d b257 e2bb 0d50 ec3d 4b46 8d3d
000001f0: 1330 ba3c 3a4a f6ba 55b8 833c 6ddb c2bc

fc3.weight f4 [100, 128]
-0.08181857 0.07011958 -0.017422738 -0.010993294 0.06141721 -0.105342574 0.091776535 0.090360485
0.09317597 0.012041977 0.0401939 0.011296908 -0.12075666 -0.030973038 0.016502878 0.11938624
0.06136489 -0.11974942 0.08844943 -0.097598374 0.087001845 -0.024451885 0.1444335 0.022092346
-0.084878385 -0.029574176 -0.01163029 0.006124191 -0.07694798 -0.096535295 0.07244425 0.017202392
-0.0631502 0.085295424 -0.046283595 -0.11936609 -0.0035889393 0.0035864324 0.12849809 0.039567027
0.025055416 -0.09975584 -0.11001416 0.04136834 0.13960192 -0.010889776 0.003910673 -0.0455512
0.06444214 -0.10479584 0.023186522 -0.05076354 0.013881261 0.079063885 -0.036140364 -0.0125178415
0.08272622 0.093100734 0.05652889 0.0047728214 0.08427162 -0.039526124 0.13279027 0.1606307
0.038164724 0.11389302 0.15439925 0.030991344 0.04505636 -0.100337766 0.07464546 0.023364166
0.11123214 -0.13876331 -0.020773279 0.013426369 0.002428771 -0.0013722655 -0.055471115 0.023523347
-0.011017988 0.12685229 0.121585764 -0.030790495 -0.025912564 0.034436893 0.12544267 0.103893824
0.15477832 0.062966794 0.107307576 0.08337679 -0.0077739763 -0.021336727 0.08513533 -0.0905575
0.042360064 -0.0024279219 0.015187796 -0.15090893 -0.01876371 0.07619399 0.10223559 0.0022358447
-0.100910895 -0.011990844 -0.10234161 -0.03671035 0.091149695 0.012317119 0.14061111 -0.07715195
0.11898796 -0.0885306 -0.059186663 0.05419148 -0.021862 -0.05864668 0.10987769 -0.07675304
-0.026504742 0.07020686 -0.06530899 -0.06302421 0.08181558 0.027881455 -0.08219788 0.11194125
-0.13290247 0.05611836 0.0006833172 -0.09071238 0.12523746 0.07459032 -0.02788016 -0.026249163
-0.0061239717 0.12256561 -0.0072463644 -0.10365746 -0.15421113 -0.14781646 0.09317075 0.015416115
0.11336217 -0.04477724 0.103374384 0.16749689 -0.08527642 0.1700704 0.012036372 0.07146552
0.12284881 0.09327858 0.12744963 -0.032439664 0.060332194 0.0016590466 0.008173262 0.01837054
-0.040432975 0.11497207 -0.05583111 -0.009828893 -0.029518485 -0.12359878 -0.11019164 0.11558996
0.019565567 0.08435377 0.077647954 0.14216289 0.1240011 0.047671363 0.08323673 0.15560086
0.14640817 -0.090516835 -0.14825414 0.06697181 0.06429189 -0.0275753 0.027620185 0.019712783
0.0189373 -0.034493916 -0.00060622324 0.16679972 -0.07871158 0.09928107 -0.041834883 0.07398533
-0.03424698 0.14565456 -0.031877674 -0.017726941 0.05655969 0.0646388 -0.11422081 -0.07349339
0.010249047 0.03555098 0.041875523 -0.036918063 -0.089360096 0.13317414 -0.15648745 0.08537084
0.024294334 0.05438696 0.066550955 -0.14008054 -0.09641876 0.03997786 0.08906125 0.15471
0.032464616 0.018955609 0.074571624 -0.006835506 0.028302329 0.08031927 0.046930727 -0.025039013
-0.12816274 -0.11880966 0.042971972 -0.18266761 -0.044946544 -0.09187821 0.05106205 0.083861865
-0.07543259 0.10931832 0.05119225 0.10610993 -0.0122672 0.0049909228 0.08184239 0.086230405
0.11056078 -0.03420637 0.02110142 0.06483603 0.06714128 0.06455584 -0.15606678 0.106340125
0.14034042 0.1143766 -0.05353012 -0.01684266 0.056760065 0.122732475 -0.15442379 -0.005035741
00000000: 7f90 a7bd db9a 8f3d 21ba 8ebc 381d 34bc
00000010: 9d90 7b3d d9bd d7bd 56f5 bb3d eb0e b93d
00000020: 0bd3 be3d b64b 453c 5ca2 243d ab16 393c
00000030: 454f f7bd 2bbb fdbc 0b31 873c c680 f43d
00000040: c059 7b3d 2f3f f5bd fa24 b53d a8e1 c7bd
00000050: 062e b23d 524f c8bc 60e6 133e 02fb b43c
00000060: b8d4 adbd 8b45 f2bc f98c 3ebc 70ad c83b
00000070: e796 9dbd 4cb4 c5bd a75d 943d 08ec 8c3c
00000080: e454 81bd 5eaf ae3d de93 3dbd 3576 f4bd
00000090: 6934 6bbb 5a0a 6b3b 0195 033e 0911 223d
000000a0: 0441 cd3c ca4c ccbd 1b4f e1bd d971 293d
000000b0: cef3 0e3e 086b 32bc 1a25 803b e593 3abd
000000c0: 3efa 833d 349f d6bd a9f1 bd3c 6eed 4fbd
000000d0: 3b6e 633c 3fec a13d eb07 14bd a217 4dbc
000000e0: 5d6c a93d 99ab be3d d68a 673d 5465 9c3b
000000f0: 9996 ac3d 25e6 21bd 2cfa 073e 607c 243e
00000100: 9d52 1c3d be40 e93d d61a 1e3e 8fe1 fd3c
00000110: 058d 383d e37d cdbd b8df 983d 3566 bf3c
00000120: adcd e33d f817 0ebe b92c aabc 46fa 5b3c
00000130: 042c 1f3b 97dd b3ba ae35 63bd 09b4 c03c
00000140: cb84 34bc 91e5 013e f501 f93d 593c fcbc
00000150: 9646 d4bc b30d 0d3d 0b74 003e 49c6 d43d
00000160: 357e 1e3e bcf4 803d 13c4 db3d 73c1 aa3d
00000170: d7bc febb 5cca aebc 6f5b ae3d 3676 b9bd
00000180: bf81 2d3d c51d 1fbb 3cd6 783c df87 1abe
00000190: 5ab6 99bc 980b 9c3d e560 d13d 4087 123b
000001a0: 5faa cebd 3f75 44bc 7a98 d1bd 985d 16bd
000001b0: b1ac ba3d becd 493c 5cfc 0f3e d701 9ebd
000001c0: f6af f33d 884f b5bd b76d 72bd e3f7 5d3d
000001d0: f017 b3bc 8037 70bd 8e07 e13d b330 9dbd
000001e0: 7920 d9bc 9dc8 8f3d b8c0 85bd d612 81bd
000001f0: ed8e a73d a667 e43c 5d57 a8bd 7441 e53d
00000200: 9617 08be 5edc 653d a420 333a 6ac7 b9bd
00000210: 403e 003e cfc2 983d ef64 e4bc 7c08 d7bc
00000220: 99ab c8bb ae03 fb3d e972 edbb 5d4a d4bd
00000230: 86e9 1dbe 335d 17be 4ed0 be3d df93 7c3c
00000240: 6d2a e83d 5768 37bd f3b5 d33d 4e84 2b3e
00000250: 67a5 aebd ef26 2e3e 3434 453c 845c 923d
00000260: 2898 fb3d d708 bf3d 2882 023e 74df 04bd
00000270: e41e 773d 5e74 d93a 25e9 053c d17d 963c
00000280: 0c9d 25bd 7a76 eb3d 29af 64bd 5d09 21bc
00000290: c0d0 f1bc 5b21 fdbd 28ac e1bd 6eba ec3d
000002a0: f847 a03c abc1 ac3d e405 9f3d 2693 113e
000002b0: 4af4 fd3d 0c43 433d 0578 aa3d d555 1f3e
000002c0: 06ec 153e e460 b9bd efcf 17be 8428 893d
000002d0: 77ab 833d 98e5 e1bc ba43 e23c b47c a13c
000002e0: 6622 9b3c 7e49 0dbd f4ea 1eba 8ccd 2a3e
000002f0: 8933 a1bd e053 cb3d 0e5b 2bbd 9f85 973d
00000300: 9046 0cbd 7826 153e 2a92 02bd 1738 91bc
00000310: 22ab 673d 5961 843d 9aec e9bd b483 96bd
00000320: 9eeb 273c e89d 113d ab85 2b3d 6537 17bd
00000330: 6d02 b7bd cd5e 083e 3f3e 20be e8d6 ae3d
00000340: e904 c73c dcc4 5e3d de4b 883d 4671 0fbe
00000350: 3377 c5bd d3bf 233d bf65 b63d 4c6c 1e3e
00000360: 9ef9 043d cb48 9b3c 02b9 983d 61fc dfbb
00000370: 49da e73c 6e7e a43d 6f3a 403d 9e1e cdbc
00000380: 183d 03be 7b52 f3bd 6103 303d 380d 3bbe
00000390: de19 38bd a52a bcbd 7126 513d c5bf ab3d
000003a0: 677c 9abd 49e2 df3d f7ae 513d 2a50 d93d
000003b0: 5efc 48bc e58a a33b fc9c a73d 9199 b03d
000003c0: b16d e23d fb1b 0cbd e3dc ac3c c1c8 843d
000003d0: 5e81 893d da35 843d f8cf 1fbe dac8 d93d
000003e0: 66b5 0f3e 473e ea3d 6642 5bbd 9ef9 89bc
000003f0: 3e7d 683d 2a5b fb3d 4521 1ebe db02 a5bb

fc3.bias f4 [100]
-0.012670637 0.08565679 -0.004663881 -0.05706441 0.066918835 -0.006471038 0.051644284 0.048603836
0.09034717 0.059525933 0.01808856 -0.08536778 -0.03198169 -0.03477894 0.057823274 -0.03959452
0.111992255 -0.056329392 0.011968139 0.07949105 0.1158044 0.12947981 -0.017855907 0.036072943
0.043467596 -0.08575193 0.034982286 -0.028185578 0.022944858 0.0020792624 -0.027449254 0.03789923
-0.037693355 0.12948602 0.085137025 0.075650856 0.054048873 -0.06606457 -0.0016457753 -0.0136972815
-0.031710953 0.016937159 0.10464239 -0.074568 0.049862497 0.0010805114 -0.045243923 -0.010340017
0.056120005 0.10502445 0.10811099 0.025467891 0.005590813 -0.04759458 -0.017569829 0.07334812
0.04947381 0.08132786 0.070080586 0.0020748118 0.043078 0.106871374 0.0009937433 -0.03785472
-0.07660856 0.012324237 -0.03492848 0.076670706 0.0037846651 0.0151662035 0.014451899 0.008247966
-0.05153985 0.011556598 0.053281788 0.08671511 0.013961002 -0.06402657 0.03484291 0.0076224823
0.12258596 0.1130466 0.055765748 -0.061287902 0.037425213 0.012822202 0.03547 -0.05058661
-0.0050389287 -0.08505735 0.094682306 0.11411764 0.12160697 0.028290777 -0.039211854 0.057217054
0.04626475 0.07406671 0.032440014 0.042606037
00000000: 8198 4fbc d46c af3d 78d3 98bb 5fbc 69bd
00000010: be0c 893d 000b d4bb f588 533d d114 473d
00000020: f007 b93d 77d1 733d 762e 943c 4dd5 aebd
00000030: 3cff 02bd 5d74 0ebd 19d8 6c3d dd2d 22bd
00000040: 325c e53d a6b9 66bd 0316 443c 34cc a23d
00000050: db2a ed3d 5b96 043e 8d46 92bc 39c1 133d
00000060: 140b 323d b59e afbd 9649 0f3d 71e5 e6bc
00000070: dbf6 bb3c 3c44 083b 42dd e0bc 393c 1b3d
00000080: 5964 1abd fc97 043e 525c ae3d d6ee 9a3d
00000090: 5a62 5d3d dc4c 87bd 0eb7 d7ba 906a 60bc
000000a0: 58e3 01bd ccbf 8a3c c04e d63d 1cb7 98bd
000000b0: 9e3c 4c3d f29f 8d3a b151 39bd 2d69 29bc
000000c0: 17de 653d 0f17 d73d 4b69 dd3d 0aa2 d03c
000000d0: 2333 b73b 89f2 42bd 9aee 8fbc 8a37 963d
000000e0: 0da5 4a3d 398f a63d 6986 8f3d 91f9 073b
000000f0: 8f72 303d 61df da3d 7e40 823a 8d0d 1bbd
00000100: f3e4 9cbd 99eb 493c 2a11 0fbd 8805 9d3d
00000110: 2508 783b ab7b 783c a8c7 6c3c 7a22 073c
00000120: 731b 53bd e357 3d3c 013e 5a3d b197 b13d
00000130: b0bc 643c 5d20 83bd 70b7 0e3d 04c6 f93b
00000140: 590e fb3d fa84 e73d a06a 643d 0609 7bbd
00000150: 2e4b 193d 3714 523c fe48 113d e833 4fbd
00000160: 991d a5bb 8c32 aebd cce8 c13d 82b6 e93d
00000170: 130d f93d 0fc2 e73c 9c9c 20bd 6e5c 6a3d
00000180: 1b80 3d3d 4ab0 973d d2df 043d ab83 2e3d

fc4.weight f4 [100, 100]
-0.17780791 -0.020631801 -0.04656169 0.0065508815 -0.040159065 0.07382614 -0.10302315 -0.12677203
0.011614954 -0.16749372 -0.164938 -0.013026693 0.10558073 0.13172323 -0.02652337 -0.084751874
0.19756499 0.01967319 -0.00076017226 0.008453717 -0.056217004 0.1531121 -0.06607946 -0.028287236
-0.0709724 -0.029194549 0.091277584 -0.08190238 0.12151477 0.043729085 -0.004770707 -0.0006435158
0.07719572 0.12446681 0.13835028 -0.0743153 0.11267094 -0.053616323 -0.051213656 -0.17346412
0.07251289 -0.056860644 0.22061105 -0.14063455 -0.019300872 -0.058183484 -0.13319331 -0.024222413
0.038315002 -0.06408399 -0.11342134 0.004431281 0.09073112 0.08259121 -0.1536217 -0.13249229
-0.046309114 0.0447544 0.09547916 -0.15442011 -0.05204558 -0.07157091 -0.015019668 0.015164904
-0.068752676 -0.03628084 -0.05398113 -0.029441172 -0.13645607 -0.048390225 -0.014121091 0.013078015
-0.07599469 0.09537854 -0.08782066 0.10556455 0.0044638235 0.04536854 -0.03395606 0.01619177
0.018315237 -0.14414272 -0.06377072 -0.03153676 -0.011597704 -0.09075501 -0.14147882 0.04845175
-0.114685245 0.09783423 -0.041733317 -0.042851686 0.08983481 -0.08816079 0.011523558 -0.13566701
0.054840676 0.017545274 -0.08493922 -0.015645402 0.12203447 -0.014753454 0.019064236 -0.056711894
-0.10077118 0.022190452 -0.00068205415 0.08378038 -0.0131313205 0.027884485 -0.08122388 0.021011123
-0.1220912 -0.02556373 0.040117417 -0.076769255 0.03553141 -0.10288094 0.113200784 -0.05950425
-0.094583444 0.028892886 0.014957278 -0.036871087 0.07532902 0.01115609 -0.099994265 0.0024121522
0.03477383 -0.037413858 0.107945845 -0.0020703003 0.08076776 -0.0881705 0.056912195 -0.011403794
0.115988456 -0.0015648255 -0.0347615 -0.07184248 -0.054774974 0.063772745 0.054112516 0.06789616
-0.06693279 0.096182585 -0.18822977 -0.07071322 -0.046002034 -0.026815735 -0.11314641 0.11976985
0.086071715 0.0052191503 -0.057231165 0.055832073 -0.10605663 0.004477421 -0.04575759 -0.12234164
-0.10364969 -0.15787682 -0.12484253 0.08566358 0.07500923 0.09645377 0.03782581 0.120464824
0.077621154 -0.14258009 -0.033534493 -0.17497 0.018238481 0.018294418 -0.032289706 0.032078955
-0.09881165 -0.03618262 0.026596379 0.08261778 -0.11916306 -0.106533624 -0.03637699 -0.017877193
-0.08748654 -0.07067321 0.03287288 0.1254965 0.005523973 -0.01492728 -0.045237746 -0.016285054
0.059738982 -0.043623347 0.11695066 -0.12531097 -0.04780085 0.04036448 -0.14979935 0.015992247
0.055285215 -0.1159916 -0.021665301 0.0007917031 0.057540618 0.07328942 -0.045201153 -0.16631585
-0.1063591 0.051617023 0.0061230557 -0.055548027 -0.07673098 0.009031612 -0.09349155 -0.007557781
-0.058632065 -0.14169759 -0.036683384 0.09715579 -0.024840087 -0.13359265 0.0878199 -0.11452646
-0.057956595 -0.037369203 -0.16454089 0.05230948 -0.11530677 -0.04192884 -0.14216357 -0.027898591
0.04552658 -0.05656246 0.118538804 -0.040861327 0.02001955 -0.13746867 0.066197634 -0.026744409
0.11089497 -0.09513858 -0.02204425 0.10295422 0.04486947 -0.084487 0.13570246 0.06602715
-0.112363994 0.033765 -0.12423074 -0.16704789 -0.02919694 0.047714017 -0.033058893 0.14076927
00000000: 4713 36be 0604 a9bc 78b7 3ebd c7a8 d63b
00000010: d57d 24bd 2932 973d cdfd d2bd 87d0 01be
00000020: a64c 3e3c 7983 2bbe 82e5 28be e96d 55bc
00000030: b63a d83d 74e2 063e 8a47 d9bc 6492 adbd
00000040: 7a4e 4a3e ab29 a13c 4c46 47ba 7681 0a3c
00000050: cd43 66bd 6bc9 1c3e ab54 87bd a2ba e7bc
00000060: fa59 91bd 6829 efbc beef ba3d 6fbc a7bd
00000070: bcdc f83d 451d 333d 9753 9cbb 9db1 28ba
00000080: ca18 9e3d 74e8 fe3d b2ab 0d3e 9f32 98bd
00000090: 06c0 e63d ca9c 5bbd 69c5 51bd 94a0 31be
000000a0: a381 943d b5e6 68bd dde7 613e 8102 10be
000000b0: dd1c 9ebc ce51 6ebd d463 08be 156e c6bc
000000c0: 31f0 1c3d 783e 83bd 7349 e8bd 4734 913b
000000d0: 3dd1 b93d 9525 a93d 024f 1dbe 0fac 07be
000000e0: a0ae 3dbd 6450 373d 948a c33d 4e20 1ebe
000000f0: bf2d 55bd c593 92bd 0e15 76bc 3876 783c
00000100: 34ce 8cbd 389b 14bd 511b 5dbd 9d2e f1bc
00000110: 24bb 0bbe d434 46bd 265c 67bc 2c45 563c
00000120: 1ba3 9bbd d355 c33d 51db b3bd 3a32 d83d
00000130: 4445 923b 5dd4 393d 8215 0bbd 9aa4 843c
00000140: d609 963c 269a 13be 399a 82bd b12c 01bd
00000150: 4c04 3ebc c3dd b9bd d3df 10be 5875 463d
00000160: 19e0 eabd 505d c83d 8ef0 2abd 4085 2fbd
00000170: 50fb b73d a58d b4bd 4ecd 3c3c 4bec 0abe
00000180: 9ea0 603d 1bbb 8f3c 9df4 adbd c92a 80bc
00000190: 35ed f93d 79b8 71bc 9a2c 9c3c bb4a 68bd
000001a0: 1f61 cebd c0c8 b53c e1cb 32ba 0c95 ab3d
000001b0: c024 57bc 016e e43c b558 a6bd 851f ac3c
000001c0: f30a fabd 076b d1bc 2952 243d 3339 9dbd
000001d0: 6289 113d 3eb3 d2bd d0d5 e73d baba 73bd
000001e0: f7b4 c1bd c6b0 ec3c 5f0f 753c 2306 17bd
000001f0: 1a46 9a3d 08c8 363c cbc9 ccbd 3315 1e3b
00000200: 016f 0e3d 463f 19bd b612 dd3d e0ad 07bb
00000210: 9169 a53d bc92 b4bd c31c 693d fbd6 3abc
00000220: 5b8b ed3d d51a cdba 1362 0ebd 2622 93bd
00000230: b95b 60bd 499b 823d 16a5 5d3d 240d 8b3d
00000240: 0f14 89bd 60fb c43d 4ebf 40be 18d2 90bd
00000250: a16c 3cbd acac dbbc 4eb9 e7bd e549 f53d
00000260: 5e46 b03d 6805 ab3b 3a6b 6abd 2cb0 643d
00000270: 3834 d9bd 54b7 923b 506c 3bbd 418e fabd
00000280: 4a46 d4bd 76aa 21be 71ad ffbd 6370 af3d
00000290: 709e 993d 8e89 c53d 3def 1a3d 43b6 f63d
000002a0: d7f7 9e3d 8400 12be 775b 09bd 562b 33be
000002b0: de68 953c 2dde 953c 3642 04bd 3965 033d
000002c0: c35d cabd 3a34 14bd a6e0 d93c 8333 a93d
000002d0: c30b f4bd 4d2e dabd 0a00 15bd 3173 92bc
000002e0: 252c b3bd 1ebd 90bd b7a5 063d 2882 003e
000002f0: 7202 b53b 8d91 74bc 374b 39bd 3c68 85bc
00000300: ddb0 743d 65ae 32bd d483 ef3d 8551 00be
00000310: d3ca 43bd 3a55 253d 0065 19be 2c02 833c
00000320: c072 623d 018d edbd 6e7b b1bc 4c8a 4f3a
00000330: b6af 6b3d c318 963d d824 39bd b44e 2abe
00000340: cdd2 d9bd 5f6c 533d eaa3 c83b 5486 63bd
00000350: 2225 9dbd 54f9 133c 7f78 bfbd 43a7 f7bb
00000360: 2d28 70bd 2c19 11be 5141 16bd 9df9 c63d
00000370: 707d cbbc 83cc 08be ebda b33d d98c eabd
00000380: e563 6dbd 7310 19bd 687d 28be 7742 563d
00000390: f525 ecbd 93bd 2bbd 5493 11be 968b e4bc
000003a0: 147a 3a3d 0aae 67bd 79c4 f23d 355e 27bd
000003b0: 0a00 a43c 96c4 0cbe a092 873d 1717 dbbc
000003c0: e71c e33d 04d8 c2bd 2596 b4bc a9d9 d23d
000003d0: 0dc9 373d 8507 adbd 96f5 0a3e 3e39 873d
000003e0: 181f e6bd 2b4d 0a3d b06c febd 9a0e 2bbe
000003f0: 6c2e efbc c66f 433d c368 07bd d225 103e

fc4.bias f4 [100]
0.05485751 0.014007044 0.076047055 0.089471325 -0.07881501 0.005123479 0.03451009 -0.03848014
-0.09371105 -0.059584152 0.0031654574 0.060780864 0.008512268 0.05238362 0.06730367 0.017379282
0.08654121 -0.06180773 -0.08235099 -0.087997645 -0.07149291 0.039425764 0.070008084 -0.008411063
-0.052617043 0.014424845 0.093172714 -0.018705226 -0.052466936 -0.015288278 -0.054868422 -0.038701877
0.08843666 -0.03330385 -0.06303743 0.052207727 -0.0144065 -0.015240255 0.036492042 0.015004183
0.012394957 -0.09839138 0.027919035 0.07461792 0.025109509 0.068873376 -0.08068479 -0.08356993
0.088194154 -0.063329205 -0.017169127 0.09621571 0.06619678 -0.044397093 -0.056266144 0.06929607
0.018791609 0.09344545 0.06841754 -0.09463294 -0.059359577 0.058397897 0.015418819 0.056901246
0.013609486 0.02911618 -0.06385377 0.047483265 -0.034963477 -0.046793036 -0.066078685 -0.0789957
-0.042939086 0.09240371 -0.005432705 0.043703664 0.0834189 0.036016837 -0.020130096 -0.020356333
-0.02564662 -0.08002513 0.02346089 0.04883104 0.0007205952 0.07593562 0.06556496 0.0010154172
-0.046159238 0.045626387 -0.063662276 0.06428826 -0.07591386 -0.043184932 -0.09801813 -0.09637521
0.05358277 0.033971764 0.0065130205 0.10011112
00000000: 45b2 603d cd7d 653c 8fbe 9b3d be3c b73d
00000010: c469 a1bd dbe2 a73b 745a 0d3d 5a9d 1dbd
00000020: 94eb bfbd 830e 74bd 9073 4f3b 5bf5 783d
00000030: 0a77 0b3c 3590 563d 82d6 893d ff5e 8e3c
00000040: 853c b13d 1a2a 7dbd a3a7 a8bd 1c38 b4bd
00000050: e06a 92bd e97c 213d 6660 8f3d 8ece 09bc
00000060: f884 57bd 2f56 6c3c 56d1 be3d b43b 99bc
00000070: 92e7 56bd b07b 7abc b6bd 60bd dc85 1ebd
00000080: 481e b53d 9e69 08bd c519 81bd c5d7 553d
00000090: 3e09 6cbc 43b2 79bc ae78 153d 1bd4 753c
000000a0: 3814 4b3c 6b81 c9bd 76b6 e43c 48d1 983d
000000b0: 75b2 cd3c 7c0d 8d3d 113e a5bd b626 abbd
000000c0: 239f b43d beb2 81bd 45a6 8cbc be0c c53d
000000d0: 2d92 873d bad9 35bd 5477 66bd 19eb 8d3d
000000e0: dcf0 993c 5460 bf3d 7f1e 8c3d eace c1bd
000000f0: 0723 73bd a232 6f3d 379f 7c3c 4811 693d
00000100: 52fa 5e3c 0e85 ee3c c4c5 82bd d07d 423d
00000110: dd35 0fbd 0eaa 3fbd 4354 87bd 7fc8 a1bd
00000120: e5e0 2fbd 283e bd3d d504 b2bb 9d02 333d
00000130: 87d7 aa3d 6486 133d dfe7 a4bc 53c2 a6bc
00000140: dc18 d2bc 37e4 a3bd 0d31 c03c 0e03 483d
00000150: 53e6 3c3a 2284 9b3d ec46 863d bf17 853a
00000160: 7811 3dbd bce2 3a3d 5e61 82bd 90a9 833d
00000170: ba78 9bbd afe2 30bd bbbd c8bd 5e60 c5bd
00000180: 9b79 5b3d fa25 0b3d 2d6b d53b 0f07 cd3d
