Data/model.pt (torch, 284261 bytes, 6 tensors)

fc1.weight f4 [289, 193]
0.036396675 0.07045877 0.003962764 -0.06324005 0.0915887 -0.0680623 0.029892666 -0.09328618
-0.13319542 -0.006669737 0.024242857 -0.012726249 -0.0749296 0.08331456 -0.10863314 0.082735345
-0.005056732 -0.0875815 0.09290052 -0.04247255 -0.008808031 -0.01307173 -0.089788705 -0.095417894
0.011436548 -0.15430391 -0.008084061 -0.11549103 -0.101197295 -0.012907062 -0.074439734 -0.04043517
-0.14531063 -0.023149382 0.012012789 0.014915215 0.015173919 0.021473281 0.019780297 -0.07684146
-0.01103012 0.046036996 0.024308667 0.14851314 0.054019973 0.14322647 0.095011495 0.05455563
0.025915189 0.04914187 0.0070467517 -0.026774222 0.008127493 -0.05151713 -0.051660787 0.005417161
0.08797231 0.032274812 -0.062169533 -0.095553994 -0.0885956 -0.00794244 -0.008490194 -0.111061834
-0.083007805 -0.035897046 -0.052152522 0.0009691357 0.13525596 0.050403584 0.026465178 -0.081034385
0.028084788 -0.042507812 0.06913109 0.037856635 0.06009411 -0.03094932 -0.011220798 -0.021396436
0.012322008 -0.0024701932 0.08491807 0.022677759 0.037216563 -0.0970337 -0.0659072 -0.04039744
-0.048078574 -0.076855846 0.020983675 0.014661696 -0.05744247 -0.060408182 -0.10439356 -0.057269033
-0.109674715 0.0540962 -0.024456592 -0.048472065 0.056949668 0.07646915 -0.029766615 0.025684956
-0.017365377 0.009903105 0.049724706 0.02704601 0.026934091 0.057963338 -0.066708624 0.039845776
0.048557304 -0.061466515 -0.028845625 -0.08334449 -0.10607258 -0.003768339 -0.06424266 -0.024604697
0.040968344 -0.007246879 0.009422713 0.08082886 0.04389879 0.046749435 0.10742594 -0.020191373
-0.022410767 0.03828193 0.041236725 0.062373042 0.05363361 -0.094807215 -0.08930728 -0.03853284
0.002502034 0.006672971 0.040500127 0.054987818 -0.019845707 -0.008069927 -0.15089314 -0.0583994
-0.0050303508 -0.0155703295 0.058578663 0.051732343 -0.08054764 0.058843862 0.09795233 -0.030608816
0.034596708 0.033195253 -0.09088394 0.016850544 -0.06658196 -0.060334917 -0.05381315 -0.007982357
-0.023304954 -0.09600965 -0.014655811 -0.12190283 -0.010628458 -0.0837815 0.008105035 0.004193504
-0.07538934 -0.05953415 -0.09789889 -0.023508852 -0.07475517 -0.024633363 -0.10647146 0.009806223
-0.10550899 0.00037509872 -0.0883794 -0.06770899 0.010007922 0.028500449 -0.048889183 0.008816214
0.051363513 0.0105323875 -0.105384804 -0.022145094 0.10322661 -0.017313246 0.04817961 0.034908593
0.11010134 0.046987176 -0.038551252 -0.13791978 0.11288441 -0.028656099 0.017655112 0.02402659
0.056445315 0.08416109 0.004333306 0.014439514 -0.05277662 0.00929031 -0.04760496 -0.06952826
-0.21219371 0.13653508 -0.06613446 -0.15758187 0.11054034 0.025761554 0.012135957 -0.15182671
-0.022634847 -0.090398856 -0.039032295 0.010151245 -0.053851496 0.11851652 -0.04063246 -0.0030710795
0.10092135 -0.015056466 -0.01748824 -0.0404377 -0.00620462 0.01838592 0.036358207 -0.027641322
-0.013187608 -0.06899169 -0.0009021077 0.11093207 0.09050585 -0.0151576735 0.06374369 -0.026538316
0.015882457 0.04344084 -0.02973955 -0.068315044 0.0724417 -0.066196114 -0.023558633 -0.16418788
-0.073080294 -0.08914792 -0.027108662 -0.014809893 -0.116770685 -0.1434595 -0.05189225 -0.032230437
00000000: ae14 153d b04c 903d 13da 813b 0084 81bd
00000010: db92 bb3d 3f64 8bbd 77e1 f43c d30c bfbd
00000020: 6164 08be cf8d dabb f598 c63c c281 50bc
00000030: b174 99bd d3a0 aa3d 0d7b debd 2671 a93d
00000040: f1b2 a5bb ee5d b3bd a142 be3d b2f7 2dbd
00000050: 8f4f 10bc cf2a 56bc 24e3 b7bd 756a c3bd
00000060: 5c60 3b3c d801 1ebe 0273 04bc 9086 ecbd
00000070: 8740 cfbd 2478 53bc dc73 98bd 599f 25bd
00000080: 4fcc 14be c6a3 bdbc 4ad1 443c f25e 743c
00000090: 079c 783c bce8 af3c 4a0a a23c 0e5f 9dbd
000000a0: adb7 34bc 4a91 3c3d f822 c73c d413 183e
000000b0: 0c44 5d3d f6a9 123e 6395 c23d b975 5f3d
000000c0: 174c d43c fc48 493d 70e8 e63b 9d55 dbbc
000000d0: 2d29 053c a003 53bd 439a 53bd 7182 b13b
000000e0: d42a b43d 9832 043d 7ba5 7ebd d0b1 c3bd
000000f0: 9c71 b5bd 0221 02bc 741a 0bbc 6374 e3bd
00000100: ffff a9bd c808 13bd e29d 55bd 990d 7e3a
00000110: 8a80 0a3e fd73 4e3d 80cd d83c 5bf5 a5bd
00000120: 1212 e63c ac1c 2ebd 9a94 8d3d 8f0f 1b3d
00000130: 3e25 763d 6e89 fdbc 70d7 37bc 9447 afbc
00000140: 3fe2 493c f7e2 21bb 86e9 ad3d b5c6 b93c
00000150: 6570 183d 9bb9 c6bd 5bfa 86bd c977 25bd
00000160: 0aee 44bd 9966 9dbd f5e5 ab3c 9c37 703c
00000170: cc48 6bbd 926e 77bd 4acc d5bd ef92 6abd
00000180: 239d e0bd fa93 5d3d 3159 c8bc a58a 46bd
00000190: 0e44 693d dc9b 9c3d 1ed9 f3bc 4269 d23c
000001a0: d641 8ebc a240 223c 22ac 4b3d 988f dd3c
000001b0: e2a4 dc3c f76a 6d3d 889e 88bd 5335 233d
000001c0: 06e4 463d 50c4 7bbd a94d ecbc 84b0 aabd
000001d0: 953c d9bd 3df6 76bb a891 83bd ca8f c9bc
000001e0: 6cce 273d 3a77 edbb b961 1a3c 9a89 a53d
000001f0: 38cf 333d 567c 3f3d 2202 dc3d 6168 a5bc
00000200: c996 b7bc 83cd 1c3d d7e7 283d e07a 7f3d
00000210: ebae 5b3d 492a c2bd bce6 b6bd 9cd4 1dbd
00000220: 2af9 233b f0a8 da3b 76e3 253d e83a 613d
00000230: 7793 a2bc ba37 04bc bb83 1abe 3634 6fbd
00000240: a4d5 a4bb b21a 7fbc 2ef0 6f3d 4be5 533d
00000250: 29f6 a4bd 4306 713d 3b9b c83d 57bf fabc
00000260: 47b5 0d3d bff7 073d 5c21 babd 270a 8a3c
00000270: 1f5c 88bd bf21 77bd 2d6b 5cbd 6fc8 02bc
00000280: 08ea bebc b5a0 c4bd ed1e 70bc 31a8 f9bd
00000290: fc22 2ebc a395 abbd fbca 043c a969 893b
000002a0: ba65 9abd 15da 73bd 377f c8bd a395 c0bc
000002b0: 3d19 99bd e8cb c9bc b50d dabd 48aa 203c
000002c0: 1915 d8bd e6a8 c439 4200 b5bd 03ab 8abd
000002d0: 44f8 233c c679 e93c 0640 48bd e271 103c
000002e0: 8c62 523d 0990 2c3c fdd3 d7bd a169 b5bc
000002f0: 7968 d33d 82d4 8dbc fc57 453d 50fc 0e3d
00000300: d07c e13d a075 403d ebe7 1dbd d83a 0dbe
00000310: f12f e73d 32c0 eabc 74a1 903c 69d3 c43c
00000320: 3433 673d a65c ac3d 68fe 8d3b b693 6c3c
00000330: 4c2c 58bd 6236 183c 6bfd 42bd d564 8ebd
00000340: 4f49 59be dacf 0b3e 8171 87bd 245d 21be
00000350: f962 e23d e509 d33c e5d5 463c 7678 1bbe
00000360: b76c b9bc 0923 b9bd 54e0 1fbd 6851 263c
00000370: 6393 5cbd cab8 f23d 396e 26bd 2a44 49bb
00000380: daaf ce3d 65af 76bc 7f43 8fbc 00a2 25bd
00000390: 2050 cbbb 129e 963c 58ec 143d 0e70 e2bc
000003a0: d610 58bc 844b 8dbd 6c7b 6cba 5a30 e33d
000003b0: 225b b93d e457 78bc 0d8c 823d e266 d9bc
000003c0: ed1b 823c 06ef 313d 5ba0 f3bc c2e8 8bbd
000003d0: 505c 943d d491 87bd 09fe c0bc de20 28be
000003e0: 1fab 95bd 2f93 b6bd fc12 debc 32a5 72bc
000003f0: 7825 efbd 0ce7 12be f88c 54bd 1004 04bd

fc1.bias f4 [289]
0.0717549 -0.004924183 -0.020493174 0.08795503 -0.05799763 -0.0018714926 -0.028032534 0.037114676
-0.005595111 0.1041692 0.100169 -0.03008874 0.047158495 -0.017711276 0.11109698 0.07614405
-0.041702915 -0.018136017 -0.11593522 0.09082822 -0.028371735 -0.030441795 0.024685388 0.078396596
0.08976189 0.04577449 0.029082134 -0.012693055 -0.045295388 0.059254825 0.03902814 -0.049939863
0.013731735 0.013828878 -0.03576098 0.06214218 0.015464107 0.059054747 0.0042288117 0.108686306
0.008027349 0.068083495 -0.024095966 0.07898004 -0.067354254 -0.060840912 0.02567901 0.065272346
0.021406844 0.03989356 -0.05101221 0.042806003 0.007116152 0.011872447 0.0974649 -0.08376941
0.07915014 -0.03714926 0.051111925 0.104992546 0.06561689 0.050210454 0.06333819 0.019752081
-0.022789413 0.060897566 0.058944087 0.09198454 -0.07012347 -0.021302313 -0.002793836 -0.0008564019
0.07779209 -0.012527281 -0.0022625627 0.031622212 -0.02595647 -0.040357854 0.06342396 0.0263546
0.030932305 0.09042124 -0.059298813 0.07189298 -0.07457631 0.010782396 0.021757962 -0.021447934
0.022716578 0.007197227 -0.021413878 0.066836625 0.083203465 0.10005865 -0.032292556 -0.050163608
0.113665186 -0.032654088 0.03495051 -0.007879908 -0.0028951482 -0.0634917 0.007593456 0.0734318
0.052514687 0.03270505 -0.0005333859 -0.026380392 0.037933 0.020598277 0.025247904 0.046175182
0.06535511 -0.08577252 -0.047052454 -0.0012018436 -0.059814792 -0.06949505 0.057110675 0.01831093
0.07022141 0.01700416 -0.054473836 0.052115884 0.049904574 -0.026147226 -0.037727226 -0.0038616143
-0.045279354 0.036424134 -0.070498094 0.011775474 0.005898641 0.024968082 -0.063675955 0.07743691
0.053832352 -0.060411427 -0.0062796944 0.064974554 0.05071377 0.12724629 0.0726871 0.009660821
0.045421857 -0.00015176869 -0.041407254 -0.053848892 -0.022550888 -0.0065398198 0.03966438 0.04554293
0.042480476 0.032427512 -0.004131969 0.07382689 0.060381986 0.001277689 0.04281041 0.034624364
0.0014188116 -0.067021705 0.088629305 -0.006530579 -0.034564838 0.036961697 -0.0057168123 -0.029648617
-0.0018018996 0.036663063 0.030315699 -0.024050586 0.031404074 -0.039952483 0.06260582 0.09361413
0.08665424 0.03940906 0.06974941 0.04703852 -0.026697218 0.017697083 0.124334775 0.046329312
0.0044758357 -0.04687998 -0.016038008 0.098648325 -0.049897287 -0.032451894 0.08443412 0.036551367
-0.07054385 -0.026639018 -0.021287033 0.0012965812 0.04122284 0.077264786 -0.023029197 -0.039570257
0.0055517154 -0.033855855 0.032407146 0.061553083 0.069811225 0.04372972 0.0117009925 -0.048439536
0.056741953 -0.04088609 -0.027040899 -0.0068672677 0.014421364 0.044825032 -0.039159756 -0.012195594
0.048914537 0.059599455 0.09110131 0.013556763 0.031359375 -0.044061847 -0.027150847 0.03237578
0.06597065 0.0027884243 0.016486872 -0.060666453 0.027151233 0.06585726 0.030774765 -0.060036015
0.010469292 0.10390434 0.027377766 0.02698678 0.0009844007 0.056126095 0.026675913 -0.038268942
0.05950751 -0.010338139 0.021258019 0.027813368 0.065033466 0.03174526 0.13799086 0.0475238
-0.02393095 0.0107758865 0.056926668 0.057741664 0.0334883 -0.08610315 0.021493383 0.017658444
00000000: 3cf4 923d 0a5b a1bb 4de1 a7bc c421 b43d
00000010: ec8e 6dbd df4c f5ba 7ca4 e5bc 8f05 183d
00000020: 3157 b7bb a956 d53d 6825 cd3d a97c f6bc
00000030: 4429 413d 3d17 91bc d086 e33d 69f1 9b3d
00000040: add0 2abd fc91 94bc 726f edbd 2504 ba3d
00000050: d76b e8bc 1261 f9bc 0339 ca3c 658e a03d
00000060: 15d5 b73d 087e 3b3d a83d ee3c 88f6 4fbc
00000070: a887 39bd 30b5 723d f9db 1f3d be8d 4cbd
00000080: 12fb 603c 8592 623c 1b7a 12bd cc88 7e3d
00000090: 2a5d 7d3c 64e3 713d d891 8a3b ed96 de3d
000000a0: 2485 033c 5c6f 8b3d e764 c5bc 4ac0 a13d
000000b0: 07f1 89bd 5234 79bd ca5c d23c 82ad 853d
000000c0: 685d af3c 6e67 233d 2ef2 50bd 5955 2f3d
000000d0: 9c2e e93b a784 423c ad9b c73d 4c8f abbd
000000e0: 7819 a23d d329 18bd bd5a 513d 5506 d73d
000000f0: 2662 863d 7aa9 4d3d 74b7 813d 1ecf a13c
00000100: ddb0 babc ba6f 793d 5b6f 713d 6462 bc3d
00000110: e59c 8fbd 3082 aebc ca18 37bb 2980 60ba
00000120: 7651 9f3d 3a3f 4dbc 8147 14bb 4b86 013d
00000130: aaa2 d4bc 474e 25bd 6ce4 813d 9ae5 d73c
00000140: bf65 fd3c c52e b93d 50e3 72bd a03c 933d
00000150: 77bb 98bd a6a8 303c c13d b23c 94b3 afbc
00000160: 1e18 ba3c b7d6 eb3b 286c afbc a4e1 883d
00000170: 9466 aa3d 8deb cc3d 3345 04bd 5b78 4dbd
00000180: 4bc9 e83d 4bc0 05bd 4428 0f3d bb1a 01bc
00000190: 87bc 3dbb f007 82bd 87d2 f83b 6963 963d
000001a0: a419 573d bbf5 053d ecd2 0bba b11b d8bc
000001b0: a25f 1b3d b8bd a83c b1d4 ce3c 3022 3d3d
000001c0: e6d8 853d 81a9 afbd 13ba 40bd 2e87 9dba
000001d0: 5b00 75bd 6c53 8ebd e2ec 693d ce00 963c
000001e0: 3ed0 8f3d 4f4c 8b3c f51f 5fbd 7777 553d
000001f0: bd68 4c3d b532 d6bc dd87 1abd 2313 7dbb
00000200: d876 39bd 7931 153d 4e61 90bd ebed 403c
00000210: 6349 c13b dd89 cc3c 8a68 82bd 3e97 9e3d
00000220: 507f 5c3d f971 77bd e5c5 cdbb 6111 853d
00000230: 3eb9 4f3d da4c 023e f9dc 943d 6c48 1e3c
00000240: 450c 3a3d 1924 1fb9 a79a 29bd a890 5cbd
00000250: a4bc b8bc fc4b d6bb 1e77 223d 398b 3a3d
00000260: 0200 2e3d b6d2 043d 7865 87bb 8d32 973d
00000270: 1a53 773d 2178 a73a f859 2f3d 47d2 0d3d
00000280: 6bf7 b93a ad42 89bd 4883 b53d 78fe d5bb
00000290: dc93 0dbd 2665 173d 1954 bbbb a8e1 f2bc
000002a0: b82d ecba 022c 163d a158 f83c bc05 c5bc
000002b0: 8fa1 003d 37a5 23bd 7b37 803d c4b8 bf3d
000002c0: c777 b13d 656b 213d c7d8 8e3d 77ab 403d
000002d0: 20b4 dabc 79f9 903c 3ba3 fe3d cec3 3d3d
000002e0: 08aa 923b 3905 40bd 2462 83bc 2208 ca3d
000002f0: 1961 4cbd 47ec 04bd cceb ac3d e3b6 153d
00000300: 4b79 90bd 123a dabc 2562 aebc 0cf2 a93a
00000310: 48d9 283d 003d 9e3d baa7 bcbc 6c14 22bd
00000320: 2aeb b53b 70ac 0abd 5bbd 043d 161f 7c3d
00000330: 30f9 8e3d ef1d 333d 85b5 3f3c 8968 46bd
00000340: 406a 683d 2c78 27bd e084 ddbc d106 e1bb
00000350: 9647 6c3c 749a 373d fb65 20bd 07d0 47bc
00000360: 9c5a 483d 8f1e 743d 5393 ba3d 2f1d 5e3c
00000370: b072 003d 327a 34bd 746b debc 779c 043d
00000380: 9f1b 873d ffbd 363b 7a0f 873c 637d 78bd
00000390: 436c de3c 2ce0 863d 5c1b fc3c 53e8 75bd
000003a0: 6587 2b3c cccb d43d 5647 e03c 6113 dd3c
000003b0: 0207 813a 7ae4 653d 7287 da3c e5bf 1cbd
000003c0: 26be 733d 4c61 29bc 4c25 ae3c dcd8 e33c
000003d0: 4430 853d 5107 023d 7a4d 0d3e 51a8 423d
000003e0: d70a c4bc 588d 303c f02b 693d 8682 6c3d
000003f0: 072b 093d d956 b0bd e412 b03c 71a8 903c

fc2.weight f4 [45, 289]
0.02931068 -0.011318927 0.06012021 0.13052464 -0.08192762 0.035514496 -0.068001345 0.04715522
0.019862866 0.09363384 -0.0913325 0.024231056 -0.03773128 -0.057806414 -0.07870085 -0.013212146
0.002730106 -0.017840354 0.012478058 0.06363521 -0.054978233 0.05738416 0.16770604 0.057060335
-0.085620806 -0.14648838 0.069427826 0.074452735 -0.08871148 0.07576854 -0.028832912 -0.12108326
-0.018203204 0.060156796 -0.018900966 -0.10829457 0.09291345 0.11049479 0.08193728 0.06378995
-0.022147141 0.06875976 0.05154548 -0.16341662 -0.010265995 -0.03460944 -0.038983587 0.010854076
-0.031221116 -0.03110772 -0.08992676 0.002184243 0.06030107 0.06730697 0.07485137 -0.07073719
0.04049307 -0.063689806 -0.036433958 -0.009802228 -0.052543126 0.04862715 -0.020186927 -0.11281343
0.051849216 0.09554931 -0.0543739 -0.055036575 0.042017892 -0.058879778 -0.09384073 -0.05306194
0.09780804 -0.06605726 -0.018243281 0.13526714 -0.09455602 -0.06471305 -0.019333059 0.070296854
0.042579178 -0.04759086 0.103851825 -0.0127105415 0.06627272 0.01623219 -0.13390744 0.13030712
-0.02931338 0.06461736 -0.05901911 -0.017343203 0.043403737 -0.030601079 0.057350375 0.01706252
0.059714906 -0.0048421337 0.040222652 0.10454555 -0.06050956 -0.045657128 0.051432557 -0.0036443705
0.0057453807 0.0226576 0.0065357233 -0.025752742 -0.0008843175 0.0403691 0.021731494 -0.02387773
-0.07651607 -0.04546906 -0.041534904 0.0867434 0.027315056 0.12900971 -0.048648946 -0.013583032
-0.006489622 -0.034327958 -0.097602 -0.04392261 0.00550286 -0.09714709 -0.017587008 0.02209259
-0.021067593 0.07110509 -0.07453558 0.02557917 -0.0063534095 -0.011579782 0.08888491 0.017058121
-0.011576773 0.011793938 -0.031018106 0.069772854 -0.10231709 0.047953356 0.007887528 -0.040435538
0.027983524 -0.04866252 0.073675394 0.03851767 -0.017095774 0.044976108 -0.04043028 0.026261296
0.004923847 0.014999824 -0.064098194 -0.046845555 -0.06394915 -0.10996324 0.05940897 0.122312196
-0.12511154 0.06062131 0.07028476 -0.1097736 -0.09819696 0.11303402 -0.047989678 0.08977747
0.002965274 0.017781014 -0.022935402 0.12848699 -0.008933555 0.023489438 0.021232393 -0.06553998
0.07127089 0.048352983 0.03217819 0.010864199 0.0660747 -0.0068373284 -0.010768896 0.04327993
0.0050653517 0.124677256 -0.07420292 0.022043735 -0.08565754 -0.06434233 0.023752479 0.061691612
0.116266616 0.055505827 0.017394826 -0.021305222 0.012054509 -0.006245415 0.083627 0.04722059
-0.0978972 0.021403456 -0.054622184 -0.05052789 0.015301195 -0.07728703 0.019167673 -0.10678373
-0.038316727 -0.06085138 0.06476803 0.13933311 0.042328205 0.09814182 0.04267594 0.00077739824
0.052801788 0.008441843 -0.05677707 0.008160805 -0.0054704263 0.00519331 0.03542662 0.094970055
0.06995994 0.016251821 -0.09498913 0.1347315 0.010680446 -0.0026957295 0.079223424 0.031202398
0.11675778 0.007184315 0.059678856 0.017361535 -0.023030298 0.11466881 -0.03628244 -0.061113037
-0.023754762 0.08552813 0.07277952 -0.007482932 -0.046124667 -0.02202729 0.021120263 -0.011887125
0.0006518315 -0.030541398 0.064874254 -0.0453393 0.09969422 -0.017554145 -0.073378466 0.016434563
00000000: f41c f03c 0573 39bc 9c40 763d 40a8 053e
00000010: abc9 a7bd a677 113d 4a44 8bbd d525 413d
00000020: 73b7 a23c 19c3 bf3d 890c bbbd 3580 c63c
00000030: 1d8c 1abd 6bc6 6cbd e92d a1bd c277 58bc
00000040: 94eb 323b ef25 92bc c570 4c3c 2d53 823d
00000050: db30 61bd a70b 6b3d 22bb 2b3e 19b8 693d
00000060: f659 afbd 0d01 16be 2d30 8e3d ad7a 983d
00000070: 5dae b5bd 892c 9b3d 0033 ecbc 80fa f7bd
00000080: e31e 95bc f966 763d 33d6 9abc 8bc9 ddbd
00000090: 6849 be3d 184b e23d bcce a73d 4ea4 823d
000000a0: ec6d b5bc ebd1 8c3d 5a21 533d b056 27be
000000b0: b432 28bc a1c2 0dbd 41ad 1fbd 4bd5 313c
000000c0: 6dc3 ffbc 9ed5 febc 852b b8bd 8425 0f3b
000000d0: 41fe 763d 3dd8 893d ad4b 993d a9de 90bd
000000e0: 10dc 253d cd6f 82bd c63b 15bd 8699 20bc
000000f0: 7637 57bd 432d 473d 0e5f a5bc ba0a e7bd
00000100: d85f 543d 5baf c33d 2bb7 5ebd 086e 61bd
00000110: f41a 2c3d ec2b 71bd 922f c0bd 7a57 59bd
00000120: 954f c83d 0749 87bd ef72 95bc 7883 0a3e
00000130: 96a6 c1bd 4788 84bd 5d60 9ebc ccf7 8f3d
00000140: 8167 2e3d a2ee 42bd 44b0 d43d e03f 50bc
00000150: feb9 873d 5ff9 843c 081f 09be 3b6f 053e
00000160: 9d22 f0bc 1b56 843d 06be 71bd 5513 8ebc
00000170: 1ec8 313d 1daf fabc 3ae8 6a3d b3c6 8b3c
00000180: 9e97 743d c3aa 9ebb 82c0 243d fa1b d63d
00000190: dfd8 77bd f802 3bbd f2aa 523d 64d6 6ebb
000001a0: bf43 bc3b 6e9c b93c 9f29 d63b 6af7 d2bc
000001b0: 8bd1 67ba 125a 253d 3f06 b23c 3b9b c3bc
000001c0: 75b4 9cbd c43d 3abd 8120 2abd 86a6 b13d
000001d0: d3c3 df3c 1f1b 043e 1e44 47bd 5e8b 5ebc
000001e0: e5a6 d4bb 799b 0cbd 8fe3 c7bd 32e8 33bd
000001f0: 5651 b43b 0ef5 c6bd a112 90bc 85fb b43c
00000200: f295 acbc 8c9f 913d 1ca6 98bd 688b d13c
00000210: 4330 d0bb 20b9 3dbc 4b09 b63d 79bd 8b3c
00000220: 81ac 3dbc 5d3b 413c af19 febc 12e5 8e3d
00000230: 9f8b d1bd bd6a 443d b13a 013c bc9f 25bd
00000240: b43d e53c 5a52 47bd 20e3 963d b4c4 1d3d
00000250: 700c 8cbc de38 383d 399a 25bd ee21 d73c
00000260: 3958 a13b d2c1 753c ea45 83bd 20e1 3fbd
00000270: c6f7 82bd 6834 e1bd d256 733d d17e fa3d
00000280: 3d1d 00be 0d4e 783d 75f1 8f3d fbd0 e0bd
00000290: 7d1b c9bd 617e e73d d390 44bd 40dd b73d
000002a0: 0b55 423b 7da9 913c 06e3 bbbc 1892 033e
000002b0: 0c5e 12bc ec6c c03c 8eef ad3c d339 86bd
000002c0: 79f6 913d c70d 463d 47cd 033d c1ff 313c
000002d0: 2c52 873d ab0b e0bb 0670 30bc 4c46 313d
000002e0: 40fb a53b ca56 ff3d b3f7 97bd 1095 b43c
000002f0: 386d afbd e9c5 83bd 8f94 c23c 58b0 7c3d
00000300: 311d ee3d 145a 633d 987f 8e3c 4a88 aebc
00000310: 4680 453c 57a6 ccbb a244 ab3d 616a 413d
00000320: 547e c8bd 4d56 af3c 83bb 5fbd 55f6 4ebd
00000330: ddb1 7a3c aa48 9ebd 8605 9d3c 6eb1 dabd
00000340: 00f2 1cbd 4c3f 79bd 1aa5 843d 57ad 0e3e
00000350: 5760 2d3d 94fe c83d f7cc 2e3d 50ca 4b3a
00000360: b046 583d a84f 0a3c 138f 68bd e6b4 053c
00000370: 4341 b3bb a42c aa3b 811b 113d a97f c23d
00000380: 2847 8f3d 8a22 853c a989 c2bd 0ef7 093e
00000390: 0afd 2e3c d6aa 30bb e43f a23d 2c9c ff3c
000003a0: b41e ef3d 676a eb3b d171 743d c739 8e3c
000003b0: 09aa bcbc 7bd7 ea3d e59c 14bd aa51 7abd
000003c0: 5999 c2bc 5f29 af3d 6e0d 953d 6233 f5bb
000003d0: 38ed 3cbd 9372 b4bc 6704 ad3c 37c2 42bc
000003e0: acdf 2a3a f431 fabc cbdc 843d b4b5 39bd
000003f0: 7c2c cc3d b6cd 8fbc 7347 96bd c7a1 863c

fc2.bias f4 [45]
0.070665345 0.030930258 0.09374685 0.07072252 0.075737424 0.083023936 0.0730395 0.02514545
0.057186812 0.034623362 0.052717898 0.09979596 0.017002368 -0.029273655 -0.0033615895 0.02987237
0.052942634 0.0585235 0.034377232 0.03975592 0.085094735 0.0019189689 -0.021734044 -0.037001956
0.07320881 -0.03562131 0.0067709023 0.07349536 0.023295917 0.08112683 0.058380563 0.016127422
0.086120784 -0.0024498967 0.0334817 0.10503552 0.03406744 0.082387604 0.07626406 0.06538472
-0.02214916 0.060368054 0.014068317 0.04042464 0.04660386
00000000: feb8 903d 7461 fd3c 59fe bf3d f8d6 903d
00000010: 391c 9b3d 7408 aa3d bc95 953d d5fd cd3c
00000020: b83c 6a3d 3ad1 0d3d b9ee 573d d361 cc3d
00000030: 8d48 8b3c 4ecf efbc 1d4e 5cbb e7b6 f43c
00000040: 60da 583d 56b6 6f3d 24cf 0c3d 1bd7 223d
00000050: 2646 ae3d e985 fb3a 980b b2bc 5d8f 17bd
00000060: 80ee 953d a7e7 11bd 72de dd3b bc84 963d
00000070: 14d7 be3c d325 a63d 7520 6f3d a81d 843c
00000080: 1860 b03d 728e 20bb 1b24 093d dd1c d73d
00000090: 4d8a 0b3d d5ba a83d 5530 9c3d 6de8 853d
000000a0: 2872 b5bc 7e44 773d cc7e 663c 4f94 253d
000000b0: b0e3 3e3d

fc3.weight f4 [30, 45]
0.015848206 -0.23904206 0.076754905 -0.17483632 -0.2880038 0.06442571 -0.24506697 0.04874965
-0.30692205 0.039718166 -0.2160229 0.008925988 -0.2792761 -0.25345775 -0.27896678 -0.15453991
-0.031933025 -0.2588067 -0.12584676 -0.09635512 -0.0059896763 -0.1769493 -0.26069644 0.0026483797
0.012823965 -0.16908847 -0.11943678 0.014841038 0.01739635 0.02229977 0.050439183 -0.21633409
0.034493823 -0.15135343 0.021065662 -0.17114048 0.058298305 0.017369905 -0.21898097 -0.15059371
0.022170477 -0.15047707 0.024333406 0.051397793 -0.023305392 -9.9177596e-05 -0.30037332 0.012044182
-0.20058472 -0.00029054808 0.011158552 -0.26164433 -0.47169167 -0.01079697 -0.3105793 -0.14753532
0.02235267 -0.42204338 -0.17946632 -0.42561713 -0.26032037 0.035046082 -0.16365266 0.0070595588
0.008744538 0.008347356 0.029634824 0.0025183437 0.0005598328 -0.3647104 -0.0010781556 -0.24567437
0.0031122274 -0.34459835 0.007710552 -0.091356285 0.008479519 0.007668223 0.020704933 -0.002271142
-0.27346328 -0.13588047 -0.18410195 -0.18238197 0.0020444382 -0.28764263 0.034784336 -0.24044506
0.01121279 -0.0039111753 -0.33141607 -0.35299549 -0.35042346 -0.3364638 0.040443715 -0.28227076
-0.26102486 -0.1469878 0.043495283 -0.033148672 0.0574812 0.025419561 -0.014274706 0.053199492
-0.059516322 0.017093573 0.05001407 -0.015573037 0.029748367 0.021255253 0.02477869 0.07235948
-0.259217 0.019847482 0.06808411 -0.2962345 -0.14496164 -0.14424226 -0.13610646 0.037675854
-0.27254808 -0.00070513744 0.05145942 -0.065289676 -0.24628295 0.025347 -0.20582096 -0.07865426
-0.41938177 -0.0067661223 0.0046018446 0.051059358 0.018142372 -0.049743816 -0.26221713 -0.28072402
-0.30534717 0.013662457 0.02090846 -0.32356286 -0.011568097 0.0152557315 -0.10069471 -0.09757218
-0.017700713 -0.3264446 0.04676809 -0.30463156 -0.089367755 -0.05509182 0.010522479 0.052637372
0.02962822 -0.25521255 -0.34620953 0.036771383 -0.19407552 -0.27571383 -0.037206817 -0.019941634
-0.23863548 -0.0912619 -0.019865086 0.051854365 -0.29892108 -0.13329221 0.014279021 0.04620981
0.02629893 -0.3122559 0.018754508 -0.23364055 -0.29668075 -0.17815402 0.030621668 0.007747038
0.05201687 0.042307142 -0.014152984 0.023279151 -0.020206511 -0.16092822 0.06853043 0.034909695
-0.33317333 0.07676647 0.016008098 -0.3082647 -0.27440095 0.044380467 -0.023746448 -0.2717362
-0.20282173 -0.3116868 -0.28288338 -0.23204851 -0.170863 -0.25056592 -0.24112225 -0.3277923
0.021970604 -0.1721003 0.037348572 -0.34279063 -0.36117238 0.012261817 0.04566323 0.0076797726
-0.0771285 -0.11199386 -0.22516268 -0.1655012 0.058987238 0.048148036 -0.0046233414 -0.03145668
-0.06834693 0.035896335 -0.10053302 -0.31312588 -0.3423426 0.019031703 -0.15718071 0.06082137
0.024621109 -0.23863098 -0.004366282 -0.021380097 -0.27129084 0.0010802059 0.02621925 -0.33327025
-0.3589292 -0.15670015 0.017294852 0.004583088 -0.21102905 -0.26407513 0.00052028155 -0.29607803
-0.25461665 -0.29332697 0.017103335 -0.109100215 0.01893258 -0.007185548 -0.1497324 -0.3335413
-0.002926365 -0.0014631317 0.0027057105 -0.0012057642 -0.15937828 -0.31844503 0.019919697 -0.11292931
00000000: 19d4 813c 71c7 74be ad31 9d3d 4b08 33be
00000010: 3c75 93be a0f1 833d d6f2 7abe b7ad 473d
00000020: e324 9dbe 84af 223d 1b35 5dbe 4f3e 123c
00000030: 47fd 8ebe 37c5 81be bcd4 8ebe b63f 1ebe
00000040: 34cc 02bd 5082 84be f9dd 00be d555 c5bd
00000050: 0c45 c4bb 3332 35be 017a 85be 7090 2d3b
00000060: 9c1b 523c 8725 2dbe 459b f4bd d327 733c
00000070: ca82 8e3c 02ae b63c 5199 4e3d af86 5dbe
00000080: 6549 0d3d 65fc 1abe e591 ac3c 733f 2fbe
00000090: 34ca 6e3d 554b 8e3c 8c3c 60be 3d35 1abe
000000a0: dc9e b53c a916 1abe da56 c73c 7e86 523d
000000b0: f3ea bebc 91fd cfb8 88ca 99be f654 453c
000000c0: 1566 4dbe b454 98b9 5cd2 363c 3ff6 85be
000000d0: 9281 f1be c6e5 30bc 4004 9fbe 8013 17be
000000e0: f21c b73c 1216 d8be 05c6 37be 7dea d9be
000000f0: b648 85be 7b8c 0f3d 9094 27be df53 e73b
00000100: 4045 0f3c 59c3 083c bbc4 f23c cc0a 253b
00000110: bec1 123a 52bb babe e650 8dba 1092 7bbe
00000120: 83f6 4b3b 326f b0be cca8 fc3b 0119 bbbd
00000130: aeed 0a3c b845 fb3b 649d a93c 71d7 14bb
00000140: 6103 8cbe 4024 0bbe 3985 3cbe 57c2 3abe
00000150: fbfb 053b e545 93be 057a 0e3d 3b37 76be
00000160: dab5 373c 5129 80bb 5eaf a9be d3bb b4be
00000170: b46a b3be fc44 acbe 4fa8 253d cb85 90be
00000180: 0da5 85be f883 16be 1c28 323d e7c6 07bd
00000190: 6871 6b3d af3c d03c 75e0 69bc b6e7 593d
000001a0: 63c7 73bd d207 8c3c 8edb 4c3d 0d26 7fbc
000001b0: d9b2 f33c 7f1f ae3c aefc ca3c 3531 943d
000001c0: 17b8 84be 3097 a23c af6f 8b3d 0cac 97be
000001d0: d370 14be 3eb4 13be 7e5f 0bbe ff51 1a3d
000001e0: 6c8b 8bbe f9d8 38ba 1dc7 523d 98b6 85bd
000001f0: 9931 7cbe 83a4 cf3c bbc2 52be 7c15 a1bd
00000200: 35b9 d6be 59b6 ddbb 12cb 963b 9e23 513d
00000210: 509f 943c 2cc0 4bbd 5341 86be 0fbb 8fbe
00000220: 7756 9cbe 7fd8 5f3c 3848 ab3c 08aa a5be
00000230: 1e88 3dbc 2df3 793c 0739 cebd ecd3 c7bd
00000240: 1601 91bc bf23 a7be e68f 3f3d abf8 9bbe
00000250: 7106 b7bd f6a7 61bd 7a66 2c3c 499a 573d
00000260: e1b6 f23c 38ab 82be 6042 b1be 979d 163d
00000270: bcbb 46be 5d2a 8dbe 2d66 18bd a35c a3bc
00000280: dc5c 74be 85e7 babd 1bbc a2bc 3e65 543d
00000290: 2f0c 99be c17d 08be 8ef2 693c 7f46 3d3d
000002a0: db70 d73c 01e0 9fbe 0ea3 993c 783f 6fbe
000002b0: 8ae6 97be 026e 36be 4bda fa3c ddda fd3b
000002c0: a40f 553d 414a 2d3d ebe1 67bc ebb3 be3c
000002d0: 2088 a5bc 5eca 24be af59 8c3d 78fd 0e3d
000002e0: b295 aabe bd37 9d3d 6a23 833c dfd4 9dbe
000002f0: 487e 8cbe 4bc8 353d e987 c2bc 0221 8bbe
00000300: 80b0 4fbe 6a95 9fbe 17d6 90be 209e 6dbe
00000310: b6f6 2ebe 2d4a 80be c0e8 76be 64d4 a7be
00000320: b2fb b33c 103b 30be d1fa 183d 4182 afbe
00000330: 96eb b8be cae5 483c 5e09 3b3d 9aa6 fb3b
00000340: 8cf5 9dbd 095d e5bd 0c91 66be 2679 29be
00000350: 9a9c 713d e036 453d 667f 97bb b8d8 00bd
00000360: 7af9 8bbd 0908 133d 42e4 cdbd 0952 a0be
00000370: 8747 afbe 60e8 9b3c fbf3 20be d41f 793d
00000380: 35b2 c93c ae5b 74be 0713 8fbb 5025 afbc
00000390: a2e6 8abe b295 8d3a c1c9 d63c 66a2 aabe
000003a0: 91c5 b7be 0176 20be efad 8d3c bb2d 963b
000003b0: 0018 58be db34 87be 8163 083a 8a97 97be
000003c0: 1d5d 82be f42e 96be 4b1c 8c3c ef6f dfbd
000003d0: 7f18 9b3c bf74 ebbb 7353 19be edc5 aabe
000003e0: 42c8 3fbb 8ec6 bfba 4a52 313b bc0a 9eba
000003f0: 0f34 23be 3a0b a3be a22e a33c 7b47 e7bd

fc3.bias f4 [30]
-0.11636681 0.0659582 -0.120328374 0.028319685 0.085118964 -0.029948417 -0.05869491 -0.06470984
-0.10186732 0.016701188 -0.08470991 0.009808086 0.03160465 0.07864299 0.05584783 0.00022744988
0.1321118 0.034841537 0.08478287 0.0036667907 -0.047801606 0.13472451 0.037209325 -0.040732577
0.09689332 -0.033398263 0.07296887 0.005354236 0.046719458 0.06347989
00000000: b951 eebd 1815 873d b96e f6bd affe e73c
00000010: da52 ae3d 6256 f5bc 136a 70bd 9886 84bd
00000020: d09f d0bd eed0 883c 647c adbd 18b2 203c
00000030: e173 013d 930f a13d b2c0 643d 9d7f 6e39
00000040: 5148 073e 00b6 0e3d a4a2 ad3d 8a4e 703b
00000050: 9ecb 43bd 39f5 093e ce68 183d 34d7 26bd
00000060: 0170 c63d 9ecc 08bd b470 953d 9672 af3b
00000070: e75c 3f3d bf01 823d
